…
-      "text/plain": [
-       "Downloading (…)\"pytorch_model.bin\";:   0%|          | 0.00/1.90G [00:00<?, ?B/s]"
-      ]
-     },
-     "metadata": {},
-     "output_type": "display_data"
-    },
-    {
-     "data": {
-      "text/plain": [
-       "MaxxVit(\n",
-       "  (stem): Stem(\n",
-       "    (conv1): Conv2dSame(3, 192, kernel_size=(3, 3), stride=(2, 2))\n",
-       "    (norm1): BatchNormAct2d(\n",
-       "      192, eps=0.001, momentum=0.1, affine=True, track_running_stats=True\n",
-       "      (drop): Identity()\n",
-       "      (act): GELUTanh()\n",
-       "    )\n",
-       "    (conv2): Conv2d(192, 192, kernel_size=(3, 3), stride=(1, 1), padding=(1, 1))\n",
-       "  )\n",
-       "  (stages): Sequential(\n",
-       "    (0): MaxxVitStage(\n",
-       "      (blocks): Sequential(\n",
-       "        (0): MaxxVitBlock(\n",
-       "          (conv): MbConvBlock(\n",
-       "            (shortcut): Downsample2d(\n",
-       "              (pool): AvgPool2dSame(kernel_size=(2, 2), stride=(2, 2), padding=(0, 0))\n",
-       "              (expand): Identity()\n",
-       "            )\n",
-       "            (pre_norm): BatchNormAct2d(\n",
-       "              192, eps=0.001, momentum=0.1, affine=True, track_running_stats=True\n",
-       "              (drop): Identity()\n",
-       "              (act): Identity()\n",
-       "            )\n",
-       "            (down): Identity()\n",
-       "            (conv1_1x1): Conv2d(192, 768, kernel_size=(1, 1), stride=(1, 1), bias=False)\n",
-       "            (norm1): BatchNormAct2d(\n",
-       "              768, eps=0.001, momentum=0.1, affine=True, track_running_stats=True\n",
-       "              (drop): Identity()\n",
-       "              (act): GELUTanh()\n",
-       "            )\n",
-       "            (conv2_kxk): Conv2dSame(768, 768, kernel_size=(3, 3), stride=(2, 2), groups=768, bias=False)\n",
-       "            (norm2): BatchNormAct2d(\n",
-       "              768, eps=0.001, momentum=0.1, affine=True, track_running_stats=True\n",
-       "              (drop): Identity()\n",
-       "              (act): GELUTanh()\n",
-       "            )\n",
-       "            (se): SEModule(\n",
-       "              (fc1): Conv2d(768, 48, kernel_size=(1, 1), stride=(1, 1))\n",
-       "              (bn): Identity()\n",
-       "              (act): SiLU(inplace=True)\n",
-       "              (fc2): Conv2d(48, 768, kernel_size=(1, 1), stride=(1, 1))\n",
-       "              (gate): Sigmoid()\n",
-       "            )\n",
-       "            (conv3_1x1): Conv2d(768, 192, kernel_size=(1, 1), stride=(1, 1))\n",
-       "            (drop_path): Identity()\n",
-       "          )\n",
-       "          (attn_block): PartitionAttentionCl(\n",
-       "            (norm1): LayerNorm((192,), eps=1e-05, elementwise_affine=True)\n",
-       "            (attn): AttentionCl(\n",
-       "              (qkv): Linear(in_features=192, out_features=576, bias=True)\n",
-       "              (rel_pos): RelPosBiasTf()\n",
-       "              (attn_drop): Dropout(p=0.0, inplace=False)\n",
-       "              (proj): Linear(in_features=192, out_features=192, bias=True)\n",
-       "              (proj_drop): Dropout(p=0.0, inplace=False)\n",
-       "            )\n",
-       "            (ls1): Identity()\n",
-       "            (drop_path1): Identity()\n",
-       "            (norm2): LayerNorm((192,), eps=1e-05, elementwise_affine=True)\n",
-       "            (mlp): Mlp(\n",
-       "              (fc1): Linear(in_features=192, out_features=768, bias=True)\n",
-       "              (act): GELUTanh()\n",
-       "              (drop1): Dropout(p=0.0, inplace=False)\n",
-       "              (fc2): Linear(in_features=768, out_features=192, bias=True)\n",
-       "              (drop2): Dropout(p=0.0, inplace=False)\n",
-       "            )\n",
-       "            (ls2): Identity()\n",
-       "            (drop_path2): Identity()\n",
-       "          )\n",
-       "          (attn_grid): PartitionAttentionCl(\n",
-       "            (norm1): LayerNorm((192,), eps=1e-05, elementwise_affine=True)\n",
-       "            (attn): AttentionCl(\n",
-       "              (qkv): Linear(in_features=192, out_features=576, bias=True)\n",
-       "              (rel_pos): RelPosBiasTf()\n",
-       "              (attn_drop): Dropout(p=0.0, inplace=False)\n",
-       "              (proj): Linear(in_features=192, out_features=192, bias=True)\n",
-       "              (proj_drop): Dropout(p=0.0, inplace=False)\n",
-       "            )\n",
-       "            (ls1): Identity()\n",
-       "            (drop_path1): Identity()\n",
-       "            (norm2): LayerNorm((192,), eps=1e-05, elementwise_affine=True)\n",
-       "            (mlp): Mlp(\n",
-       "              (fc1): Linear(in_features=192, out_features=768, bias=True)\n",
-       "              (act): GELUTanh()\n",
-       "              (drop1): Dropout(p=0.0, inplace=False)\n",
-       "              (fc2): Linear(in_features=768, out_features=192, bias=True)\n",
-       "              (drop2): Dropout(p=0.0, inplace=False)\n",
-       "            )\n",
-       "            (ls2): Identity()\n",
-       "            (drop_path2): Identity()\n",
-       "          )\n",
-       "        )\n",
-       "        (1): MaxxVitBlock(\n",
-       "          (conv): MbConvBlock(\n",
-       "            (shortcut): Identity()\n",
-       "            (pre_norm): BatchNormAct2d(\n",
-       "              192, eps=0.001, momentum=0.1, affine=True, track_running_stats=True\n",
-       "              (drop): Identity()\n",
-       "              (act): Identity()\n",
-       "            )\n",
-       "            (down): Identity()\n",
-       "            (conv1_1x1): Conv2d(192, 768, kernel_size=(1, 1), stride=(1, 1), bias=False)\n",
-       "            (norm1): BatchNormAct2d(\n",
-       "              768, eps=0.001, momentum=0.1, affine=True, track_running_stats=True\n",
-       "              (drop): Identity()\n",
-       "              (act): GELUTanh()\n",
-       "            )\n",
-       "            (conv2_kxk): Conv2d(768, 768, kernel_size=(3, 3), stride=(1, 1), padding=(1, 1), groups=768, bias=False)\n",
-       "            (norm2): BatchNormAct2d(\n",
-       "              768, eps=0.001, momentum=0.1, affine=True, track_running_stats=True\n",
-       "              (drop): Identity()\n",
-       "              (act): GELUTanh()\n",
-       "            )\n",
-       "            (se): SEModule(\n",
-       "              (fc1): Conv2d(768, 48, kernel_size=(1, 1), stride=(1, 1))\n",
-       "              (bn): Identity()\n",
-       "              (act): SiLU(inplace=True)\n",
-       "              (fc2): Conv2d(48, 768, kernel_size=(1, 1), stride=(1, 1))\n",
-       "              (gate): Sigmoid()\n",
-       "            )\n",
-       "            (conv3_1x1): Conv2d(768, 192, kernel_size=(1, 1), stride=(1, 1))\n",
-       "            (drop_path): Identity()\n",
-       "          )\n",
-       "          (attn_block): PartitionAttentionCl(\n",
-       "            (norm1): LayerNorm((192,), eps=1e-05, elementwise_affine=True)\n",
-       "            (attn): AttentionCl(\n",
-       "              (qkv): Linear(in_features=192, out_features=576, bias=True)\n",
-       "              (rel_pos): RelPosBiasTf()\n",
-       "              (attn_drop): Dropout(p=0.0, inplace=False)\n",
-       "              (proj): Linear(in_features=192, out_features=192, bias=True)\n",
-       "              (proj_drop): Dropout(p=0.0, inplace=False)\n",
-       "            )\n",
-       "            (ls1): Identity()\n",
-       "            (drop_path1): Identity()\n",
-       "            (norm2): LayerNorm((192,), eps=1e-05, elementwise_affine=True)\n",
-       "            (mlp): Mlp(\n",
-       "              (fc1): Linear(in_features=192, out_features=768, bias=True)\n",
-       "              (act): GELUTanh()\n",
-       "              (drop1): Dropout(p=0.0, inplace=False)\n",
-       "              (fc2): Linear(in_features=768, out_features=192, bias=True)\n",
-       "              (drop2): Dropout(p=0.0, inplace=False)\n",
-       "            )\n",
-       "            (ls2): Identity()\n",
-       "            (drop_path2): Identity()\n",
-       "          )\n",
-       "          (attn_grid): PartitionAttentionCl(\n",
-       "            (norm1): LayerNorm((192,), eps=1e-05, elementwise_affine=True)\n",
-       "            (attn): AttentionCl(\n",
-       "              (qkv): Linear(in_features=192, out_features=576, bias=True)\n",
-       "              (rel_pos): RelPosBiasTf()\n",
-       "              (attn_drop): Dropout(p=0.0, inplace=False)\n",
-       "              (proj): Linear(in_features=192, out_features=192, bias=True)\n",
-       "              (proj_drop): Dropout(p=0.0, inplace=False)\n",
-       "            )\n",
-       "            (ls1): Identity()\n",
-       "            (drop_path1): Identity()\n",
-       "            (norm2): LayerNorm((192,), eps=1e-05, elementwise_affine=True)\n",
-       "            (mlp): Mlp(\n",
-       "              (fc1): Linear(in_features=192, out_features=768, bias=True)\n",
-       "              (act): GELUTanh()\n",
-       "              (drop1): Dropout(p=0.0, inplace=False)\n",
-       "              (fc2): Linear(in_features=768, out_features=192, bias=True)\n",
-       "              (drop2): Dropout(p=0.0, inplace=False)\n",
-       "            )\n",
-       "            (ls2): Identity()\n",
-       "            (drop_path2): Identity()\n",
-       "          )\n",
-       "        )\n",
-       "      )\n",
-       "    )\n",
-       "    (1): MaxxVitStage(\n",
-       "      (blocks): Sequential(\n",
-       "        (0): MaxxVitBlock(\n",
-       "          (conv): MbConvBlock(\n",
-       "            (shortcut): Downsample2d(\n",
-       "              (pool): AvgPool2dSame(kernel_size=(2, 2), stride=(2, 2), padding=(0, 0))\n",
-       "              (expand): Conv2d(192, 384, kernel_size=(1, 1), stride=(1, 1))\n",
-       "            )\n",
-       "            (pre_norm): BatchNormAct2d(\n",
-       "              192, eps=0.001, momentum=0.1, affine=True, track_running_stats=True\n",
-       "              (drop): Identity()\n",
-       "              (act): Identity()\n",
-       "            )\n",
-       "            (down): Identity()\n",
-       "            (conv1_1x1): Conv2d(192, 1536, kernel_size=(1, 1), stride=(1, 1), bias=False)\n",
-       "            (norm1): BatchNormAct2d(\n",
-       "              1536, eps=0.001, momentum=0.1, affine=True, track_running_stats=True\n",
-       "              (drop): Identity()\n",
-       "              (act): GELUTanh()\n",
-       "            )\n",
-       "            (conv2_kxk): Conv2dSame(1536, 1536, kernel_size=(3, 3), stride=(2, 2), groups=1536, bias=False)\n",
-       "            (norm2): BatchNormAct2d(\n",
-       "              1536, eps=0.001, momentum=0.1, affine=True, track_running_stats=True\n",
-       "              (drop): Identity()\n",
-       "              (act): GELUTanh()\n",
-       "            )\n",
-       "            (se): SEModule(\n",
-       "              (fc1): Conv2d(1536, 96, kernel_size=(1, 1), stride=(1, 1))\n",
-       "              (bn): Identity()\n",
-       "              (act): SiLU(inplace=True)\n",
-       "              (fc2): Conv2d(96, 1536, kernel_size=(1, 1), stride=(1, 1))\n",
-       "              (gate): Sigmoid()\n",
-       "            )\n",
-       "            (conv3_1x1): Conv2d(1536, 384, kernel_size=(1, 1), stride=(1, 1))\n",
-       "            (drop_path): Identity()\n",
-       "          )\n",
-       "          (attn_block): PartitionAttentionCl(\n",
-       "            (norm1): LayerNorm((384,), eps=1e-05, elementwise_affine=True)\n",
-       "            (attn): AttentionCl(\n",
-       "              (qkv): Linear(in_features=384, out_features=1152, bias=True)\n",
-       "              (rel_pos): RelPosBiasTf()\n",
-       "              (attn_drop): Dropout(p=0.0, inplace=False)\n",
-       "              (proj): Linear(in_features=384, out_features=384, bias=True)\n",
-       "              (proj_drop): Dropout(p=0.0, inplace=False)\n",
-       "            )\n",
-       "            (ls1): Identity()\n",
-       "            (drop_path1): Identity()\n",
-       "            (norm2): LayerNorm((384,), eps=1e-05, elementwise_affine=True)\n",
-       "            (mlp): Mlp(\n",
-       "              (fc1): Linear(in_features=384, out_features=1536, bias=True)\n",
-       "              (act): GELUTanh()\n",
-       "              (drop1): Dropout(p=0.0, inplace=False)\n",
-       "              (fc2): Linear(in_features=1536, out_features=384, bias=True)\n",
-       "              (drop2): Dropout(p=0.0, inplace=False)\n",
-       "            )\n",
-       "            (ls2): Identity()\n",
-       "            (drop_path2): Identity()\n",
-       "          )\n",
-       "          (attn_grid): PartitionAttentionCl(\n",
-       "            (norm1): LayerNorm((384,), eps=1e-05, elementwise_affine=True)\n",
-       "            (attn): AttentionCl(\n",
-       "              (qkv): Linear(in_features=384, out_features=1152, bias=True)\n",
-       "              (rel_pos): RelPosBiasTf()\n",
-       "              (attn_drop): Dropout(p=0.0, inplace=False)\n",
-       "              (proj): Linear(in_features=384, out_features=384, bias=True)\n",
-       "              (proj_drop): Dropout(p=0.0, inplace=False)\n",
-       "            )\n",
-       "            (ls1): Identity()\n",
-       "            (drop_path1): Identity()\n",
-       "            (norm2): LayerNorm((384,), eps=1e-05, elementwise_affine=True)\n",
-       "            (mlp): Mlp(\n",
-       "              (fc1): Linear(in_features=384, out_features=1536, bias=True)\n",
-       "              (act): GELUTanh()\n",
-       "              (drop1): Dropout(p=0.0, inplace=False)\n",
-       "              (fc2): Linear(in_features=1536, out_features=384, bias=True)\n",
-       "              (drop2): Dropout(p=0.0, inplace=False)\n",
-       "            )\n",
-       "            (ls2): Identity()\n",
-       "            (drop_path2): Identity()\n",
-       "          )\n",
-       "        )\n",
-       "        (1): MaxxVitBlock(\n",
-       "          (conv): MbConvBlock(\n",
-       "            (shortcut): Identity()\n",
-       "            (pre_norm): BatchNormAct2d(\n",
-       "              384, eps=0.001, momentum=0.1, affine=True, track_running_stats=True\n",
-       "              (drop): Identity()\n",
-       "              (act): Identity()\n",
-       "            )\n",
-       "            (down): Identity()\n",
-       "            (conv1_1x1): Conv2d(384, 1536, kernel_size=(1, 1), stride=(1, 1), bias=False)\n",
-       "            (norm1): BatchNormAct2d(\n",
-       "              1536, eps=0.001, momentum=0.1, affine=True, track_running_stats=True\n",
-       "              (drop): Identity()\n",
-       "              (act): GELUTanh()\n",
-       "            )\n",
-       "            (conv2_kxk): Conv2d(1536, 1536, kernel_size=(3, 3), stride=(1, 1), padding=(1, 1), groups=1536, bias=False)\n",
-       "            (norm2): BatchNormAct2d(\n",
-       "              1536, eps=0.001, momentum=0.1, affine=True, track_running_stats=True\n",
-       "              (drop): Identity()\n",
-       "              (act): GELUTanh()\n",
-       "            )\n",
-       "            (se): SEModule(\n",
-       "              (fc1): Conv2d(1536, 96, kernel_size=(1, 1), stride=(1, 1))\n",
-       "              (bn): Identity()\n",
-       "              (act): SiLU(inplace=True)\n",
-       "              (fc2): Conv2d(96, 1536, kernel_size=(1, 1), stride=(1, 1))\n",
-       "              (gate): Sigmoid()\n",
-       "            )\n",
-       "            (conv3_1x1): Conv2d(1536, 384, kernel_size=(1, 1), stride=(1, 1))\n",
-       "            (drop_path): Identity()\n",
-       "          )\n",
-       "          (attn_block): PartitionAttentionCl(\n",
-       "            (norm1): LayerNorm((384,), eps=1e-05, elementwise_affine=True)\n",
-       "            (attn): AttentionCl(\n",
-       "              (qkv): Linear(in_features=384, out_features=1152, bias=True)\n",
-       "              (rel_pos): RelPosBiasTf()\n",
-       "              (attn_drop): Dropout(p=0.0, inplace=False)\n",
-       "              (proj): Linear(in_features=384, out_features=384, bias=True)\n",
-       "              (proj_drop): Dropout(p=0.0, inplace=False)\n",
-       "            )\n",
-       "            (ls1): Identity()\n",
-       "            (drop_path1): Identity()\n",
-       "            (norm2): LayerNorm((384,), eps=1e-05, elementwise_affine=True)\n",
-       "            (mlp): Mlp(\n",
-       "              (fc1): Linear(in_features=384, out_features=1536, bias=True)\n",
-       "              (act): GELUTanh()\n",
-       "              (drop1): Dropout(p=0.0, inplace=False)\n",
-       "              (fc2): Linear(in_features=1536, out_features=384, bias=True)\n",
-       "              (drop2): Dropout(p=0.0, inplace=False)\n",
-       "            )\n",
-       "            (ls2): Identity()\n",
-       "            (drop_path2): Identity()\n",
-       "          )\n",
-       "          (attn_grid): PartitionAttentionCl(\n",
-       "            (norm1): LayerNorm((384,), eps=1e-05, elementwise_affine=True)\n",
-       "            (attn): AttentionCl(\n",
-       "              (qkv): Linear(in_features=384, out_features=1152, bias=True)\n",
-       "              (rel_pos): RelPosBiasTf()\n",
-       "              (attn_drop): Dropout(p=0.0, inplace=False)\n",
-       "              (proj): Linear(in_features=384, out_features=384, bias=True)\n",
-       "              (proj_drop): Dropout(p=0.0, inplace=False)\n",
-       "            )\n",
-       "            (ls1): Identity()\n",
-       "            (drop_path1): Identity()\n",
-       "            (norm2): LayerNorm((384,), eps=1e-05, elementwise_affine=True)\n",
-       "            (mlp): Mlp(\n",
-       "              (fc1): Linear(in_features=384, out_features=1536, bias=True)\n",
-       "              (act): GELUTanh()\n",
-       "              (drop1): Dropout(p=0.0, inplace=False)\n",
-       "              (fc2): Linear(in_features=1536, out_features=384, bias=True)\n",
-       "              (drop2): Dropout(p=0.0, inplace=False)\n",
-       "            )\n",
-       "            (ls2): Identity()\n",
-       "            (drop_path2): Identity()\n",
-       "          )\n",
-       "        )\n",
-       "        (2): MaxxVitBlock(\n",
-       "          (conv): MbConvBlock(\n",
-       "            (shortcut): Identity()\n",
-       "            (pre_norm): BatchNormAct2d(\n",
-       "              384, eps=0.001, momentum=0.1, affine=True, track_running_stats=True\n",
-       "              (drop): Identity()\n",
-       "              (act): Identity()\n",
-       "            )\n",
-       "            (down): Identity()\n",
-       "            (conv1_1x1): Conv2d(384, 1536, kernel_size=(1, 1), stride=(1, 1), bias=False)\n",
-       "            (norm1): BatchNormAct2d(\n",
-       "              1536, eps=0.001, momentum=0.1, affine=True, track_running_stats=True\n",
-       "              (drop): Identity()\n",
-       "              (act): GELUTanh()\n",
-       "            )\n",
-       "            (conv2_kxk): Conv2d(1536, 1536, kernel_size=(3, 3), stride=(1, 1), padding=(1, 1), groups=1536, bias=False)\n",
-       "            (norm2): BatchNormAct2d(\n",
-       "              1536, eps=0.001, momentum=0.1, affine=True, track_running_stats=True\n",
-       "              (drop): Identity()\n",
-       "              (act): GELUTanh()\n",
-       "            )\n",
-       "            (se): SEModule(\n",
-       "              (fc1): Conv2d(1536, 96, kernel_size=(1, 1), stride=(1, 1))\n",
-       "              (bn): Identity()\n",
-       "              (act): SiLU(inplace=True)\n",
-       "              (fc2): Conv2d(96, 1536, kernel_size=(1, 1), stride=(1, 1))\n",
-       "              (gate): Sigmoid()\n",
-       "            )\n",
-       "            (conv3_1x1): Conv2d(1536, 384, kernel_size=(1, 1), stride=(1, 1))\n",
-       "            (drop_path): Identity()\n",
-       "          )\n",
-       "          (attn_block): PartitionAttentionCl(\n",
-       "            (norm1): LayerNorm((384,), eps=1e-05, elementwise_affine=True)\n",
-       "            (attn): AttentionCl(\n",
-       "              (qkv): Linear(in_features=384, out_features=1152, bias=True)\n",
-       "              (rel_pos): RelPosBiasTf()\n",
-       "              (attn_drop): Dropout(p=0.0, inplace=False)\n",
-       "              (proj): Linear(in_features=384, out_features=384, bias=True)\n",
-       "              (proj_drop): Dropout(p=0.0, inplace=False)\n",
-       "            )\n",
-       "            (ls1): Identity()\n",
-       "            (drop_path1): Identity()\n",
-       "            (norm2): LayerNorm((384,), eps=1e-05, elementwise_affine=True)\n",
-       "            (mlp): Mlp(\n",
-       "              (fc1): Linear(in_features=384, out_features=1536, bias=True)\n",
-       "              (act): GELUTanh()\n",
-       "              (drop1): Dropout(p=0.0, inplace=False)\n",
-       "              (fc2): Linear(in_features=1536, out_features=384, bias=True)\n",
-       "              (drop2): Dropout(p=0.0, inplace=False)\n",
-       "            )\n",
-       "            (ls2): Identity()\n",
-       "            (drop_path2): Identity()\n",
-       "          )\n",
-       "          (attn_grid): PartitionAttentionCl(\n",
-       "            (norm1): LayerNorm((384,), eps=1e-05, elementwise_affine=True)\n",
-       "            (attn): AttentionCl(\n",
-       "              (qkv): Linear(in_features=384, out_features=1152, bias=True)\n",
-       "              (rel_pos): RelPosBiasTf()\n",
-       "              (attn_drop): Dropout(p=0.0, inplace=False)\n",
-       "              (proj): Linear(in_features=384, out_features=384, bias=True)\n",
-       "              (proj_drop): Dropout(p=0.0, inplace=False)\n",
-       "            )\n",
-       "            (ls1): Identity()\n",
-       "            (drop_path1): Identity()\n",
-       "            (norm2): LayerNorm((384,), eps=1e-05, elementwise_affine=True)\n",
-       "            (mlp): Mlp(\n",
-       "              (fc1): Linear(in_features=384, out_features=1536, bias=True)\n",
-       "              (act): GELUTanh()\n",
-       "              (drop1): Dropout(p=0.0, inplace=False)\n",
-       "              (fc2): Linear(in_features=1536, out_features=384, bias=True)\n",
-       "              (drop2): Dropout(p=0.0, inplace=False)\n",
-       "            )\n",
-       "            (ls2): Identity()\n",
-       "            (drop_path2): Identity()\n",
-       "          )\n",
-       "        )\n",
-       "        (3): MaxxVitBlock(\n",
-       "          (conv): MbConvBlock(\n",
-       "            (shortcut): Identity()\n",
-       "            (pre_norm): BatchNormAct2d(\n",
-       "              384, eps=0.001, momentum=0.1, affine=True, track_running_stats=True\n",
-       "              (drop): Identity()\n",
-       "              (act): Identity()\n",
-       "            )\n",
-       "            (down): Identity()\n",
-       "            (conv1_1x1): Conv2d(384, 1536, kernel_size=(1, 1), stride=(1, 1), bias=False)\n",
-       "            (norm1): BatchNormAct2d(\n",
-       "              1536, eps=0.001, momentum=0.1, affine=True, track_running_stats=True\n",
-       "              (drop): Identity()\n",
-       "              (act): GELUTanh()\n",
-       "            )\n",
-       "            (conv2_kxk): Conv2d(1536, 1536, kernel_size=(3, 3), stride=(1, 1), padding=(1, 1), groups=1536, bias=False)\n",
-       "            (norm2): BatchNormAct2d(\n",
-       "              1536, eps=0.001, momentum=0.1, affine=True, track_running_stats=True\n",
-       "              (drop): Identity()\n",
-       "              (act): GELUTanh()\n",
-       "            )\n",
-       "            (se): SEModule(\n",
-       "              (fc1): Conv2d(1536, 96, kernel_size=(1, 1), stride=(1, 1))\n",
-       "              (bn): Identity()\n",
-       "              (act): SiLU(inplace=True)\n",
-       "              (fc2): Conv2d(96, 1536, kernel_size=(1, 1), stride=(1, 1))\n",
-       "              (gate): Sigmoid()\n",
-       "            )\n",
-       "            (conv3_1x1): Conv2d(1536, 384, kernel_size=(1, 1), stride=(1, 1))\n",
-       "            (drop_path): Identity()\n",
-       "          )\n",
-       "          (attn_block): PartitionAttentionCl(\n",
-       "            (norm1): LayerNorm((384,), eps=1e-05, elementwise_affine=True)\n",
-       "            (attn): AttentionCl(\n",
-       "              (qkv): Linear(in_features=384, out_features=1152, bias=True)\n",
-       "              (rel_pos): RelPosBiasTf()\n",
-       "              (attn_drop): Dropout(p=0.0, inplace=False)\n",
-       "              (proj): Linear(in_features=384, out_features=384, bias=True)\n",
-       "              (proj_drop): Dropout(p=0.0, inplace=False)\n",
-       "            )\n",
-       "            (ls1): Identity()\n",
-       "            (drop_path1): Identity()\n",
-       "            (norm2): LayerNorm((384,), eps=1e-05, elementwise_affine=True)\n",
-       "            (mlp): Mlp(\n",
-       "              (fc1): Linear(in_features=384, out_features=1536, bias=True)\n",
-       "              (act): GELUTanh()\n",
-       "              (drop1): Dropout(p=0.0, inplace=False)\n",
-       "              (fc2): Linear(in_features=1536, out_features=384, bias=True)\n",
-       "              (drop2): Dropout(p=0.0, inplace=False)\n",
-       "            )\n",
-       "            (ls2): Identity()\n",
-       "            (drop_path2): Identity()\n",
-       "          )\n",
-       "          (attn_grid): PartitionAttentionCl(\n",
-       "            (norm1): LayerNorm((384,), eps=1e-05, elementwise_affine=True)\n",
-       "            (attn): AttentionCl(\n",
-       "              (qkv): Linear(in_features=384, out_features=1152, bias=True)\n",
-       "              (rel_pos): RelPosBiasTf()\n",
-       "              (attn_drop): Dropout(p=0.0, inplace=False)\n",
-       "              (proj): Linear(in_features=384, out_features=384, bias=True)\n",
-       "              (proj_drop): Dropout(p=0.0, inplace=False)\n",
-       "            )\n",
-       "            (ls1): Identity()\n",
-       "            (drop_path1): Identity()\n",
-       "            (norm2): LayerNorm((384,), eps=1e-05, elementwise_affine=True)\n",
-       "            (mlp): Mlp(\n",
-       "              (fc1): Linear(in_features=384, out_features=1536, bias=True)\n",
-       "              (act): GELUTanh()\n",
-       "              (drop1): Dropout(p=0.0, inplace=False)\n",
-       "              (fc2): Linear(in_features=1536, out_features=384, bias=True)\n",
-       "              (drop2): Dropout(p=0.0, inplace=False)\n",
-       "            )\n",
-       "            (ls2): Identity()\n",
-       "            (drop_path2): Identity()\n",
-       "          )\n",
-       "        )\n",
-       "        (4): MaxxVitBlock(\n",
-       "          (conv): MbConvBlock(\n",
-       "            (shortcut): Identity()\n",
-       "            (pre_norm): BatchNormAct2d(\n",
-       "              384, eps=0.001, momentum=0.1, affine=True, track_running_stats=True\n",
-       "              (drop): Identity()\n",
-       "              (act): Identity()\n",
-       "            )\n",
-       "            (down): Identity()\n",
-       "            (conv1_1x1): Conv2d(384, 1536, kernel_size=(1, 1), stride=(1, 1), bias=False)\n",
-       "            (norm1): BatchNormAct2d(\n",
-       "              1536, eps=0.001, momentum=0.1, affine=True, track_running_stats=True\n",
-       "              (drop): Identity()\n",
-       "              (act): GELUTanh()\n",
-       "            )\n",
-       "            (conv2_kxk): Conv2d(1536, 1536, kernel_size=(3, 3), stride=(1, 1), padding=(1, 1), groups=1536, bias=False)\n",
-       "            (norm2): BatchNormAct2d(\n",
-       "              1536, eps=0.001, momentum=0.1, affine=True, track_running_stats=True\n",
-       "              (drop): Identity()\n",
-       "              (act): GELUTanh()\n",
-       "            )\n",
-       "            (se): SEModule(\n",
-       "              (fc1): Conv2d(1536, 96, kernel_size=(1, 1), stride=(1, 1))\n",
-       "              (bn): Identity()\n",
-       "              (act): SiLU(inplace=True)\n",
-       "              (fc2): Conv2d(96, 1536, kernel_size=(1, 1), stride=(1, 1))\n",
-       "              (gate): Sigmoid()\n",
-       "            )\n",
-       "            (conv3_1x1): Conv2d(1536, 384, kernel_size=(1, 1), stride=(1, 1))\n",
-       "            (drop_path): Identity()\n",
-       "          )\n",
-       "          (attn_block): PartitionAttentionCl(\n",
-       "            (norm1): LayerNorm((384,), eps=1e-05, elementwise_affine=True)\n",
-       "            (attn): AttentionCl(\n",
-       "              (qkv): Linear(in_features=384, out_features=1152, bias=True)\n",
-       "              (rel_pos): RelPosBiasTf()\n",
-       "              (attn_drop): Dropout(p=0.0, inplace=False)\n",
-       "              (proj): Linear(in_features=384, out_features=384, bias=True)\n",
-       "              (proj_drop): Dropout(p=0.0, inplace=False)\n",
-       "            )\n",
-       "            (ls1): Identity()\n",
-       "            (drop_path1): Identity()\n",
-       "            (norm2): LayerNorm((384,), eps=1e-05, elementwise_affine=True)\n",
-       "            (mlp): Mlp(\n",
-       "              (fc1): Linear(in_features=384, out_features=1536, bias=True)\n",
-       "              (act): GELUTanh()\n",
-       "              (drop1): Dropout(p=0.0, inplace=False)\n",
-       "              (fc2): Linear(in_features=1536, out_features=384, bias=True)\n",
-       "              (drop2): Dropout(p=0.0, inplace=False)\n",
-       "            )\n",
-       "            (ls2): Identity()\n",
-       "            (drop_path2): Identity()\n",
-       "          )\n",
-       "          (attn_grid): PartitionAttentionCl(\n",
-       "            (norm1): LayerNorm((384,), eps=1e-05, elementwise_affine=True)\n",
-       "            (attn): AttentionCl(\n",
-       "              (qkv): Linear(in_features=384, out_features=1152, bias=True)\n",
-       "              (rel_pos): RelPosBiasTf()\n",
-       "              (attn_drop): Dropout(p=0.0, inplace=False)\n",
-       "              (proj): Linear(in_features=384, out_features=384, bias=True)\n",
-       "              (proj_drop): Dropout(p=0.0, inplace=False)\n",
-       "            )\n",
-       "            (ls1): Identity()\n",
-       "            (drop_path1): Identity()\n",
-       "            (norm2): LayerNorm((384,), eps=1e-05, elementwise_affine=True)\n",
-       "            (mlp): Mlp(\n",
-       "              (fc1): Linear(in_features=384, out_features=1536, bias=True)\n",
-       "              (act): GELUTanh()\n",
-       "              (drop1): Dropout(p=0.0, inplace=False)\n",
-       "              (fc2): Linear(in_features=1536, out_features=384, bias=True)\n",
-       "              (drop2): Dropout(p=0.0, inplace=False)\n",
-       "            )\n",
-       "            (ls2): Identity()\n",
-       "            (drop_path2): Identity()\n",
-       "          )\n",
-       "        )\n",
-       "        (5): MaxxVitBlock(\n",
-       "          (conv): MbConvBlock(\n",
-       "            (shortcut): Identity()\n",
-       "            (pre_norm): BatchNormAct2d(\n",
-       "              384, eps=0.001, momentum=0.1, affine=True, track_running_stats=True\n",
-       "              (drop): Identity()\n",
-       "              (act): Identity()\n",
-       "            )\n",
-       "            (down): Identity()\n",
-       "            (conv1_1x1): Conv2d(384, 1536, kernel_size=(1, 1), stride=(1, 1), bias=False)\n",
-       "            (norm1): BatchNormAct2d(\n",
-       "              1536, eps=0.001, momentum=0.1, affine=True, track_running_stats=True\n",
-       "              (drop): Identity()\n",
-       "              (act): GELUTanh()\n",
-       "            )\n",
-       "            (conv2_kxk): Conv2d(1536, 1536, kernel_size=(3, 3), stride=(1, 1), padding=(1, 1), groups=1536, bias=False)\n",
-       "            (norm2): BatchNormAct2d(\n",
-       "              1536, eps=0.001, momentum=0.1, affine=True, track_running_stats=True\n",
-       "              (drop): Identity()\n",
-       "              (act): GELUTanh()\n",
-       "            )\n",
-       "            (se): SEModule(\n",
-       "              (fc1): Conv2d(1536, 96, kernel_size=(1, 1), stride=(1, 1))\n",
-       "              (bn): Identity()\n",
-       "              (act): SiLU(inplace=True)\n",
-       "              (fc2): Conv2d(96, 1536, kernel_size=(1, 1), stride=(1, 1))\n",
-       "              (gate): Sigmoid()\n",
-       "            )\n",
-       "            (conv3_1x1): Conv2d(1536, 384, kernel_size=(1, 1), stride=(1, 1))\n",
-       "            (drop_path): Identity()\n",
-       "          )\n",
-       "          (attn_block): PartitionAttentionCl(\n",
-       "            (norm1): LayerNorm((384,), eps=1e-05, elementwise_affine=True)\n",
-       "            (attn): AttentionCl(\n",
-       "              (qkv): Linear(in_features=384, out_features=1152, bias=True)\n",
-       "              (rel_pos): RelPosBiasTf()\n",
-       "              (attn_drop): Dropout(p=0.0, inplace=False)\n",
-       "              (proj): Linear(in_features=384, out_features=384, bias=True)\n",
-       "              (proj_drop): Dropout(p=0.0, inplace=False)\n",
-       "            )\n",
-       "            (ls1): Identity()\n",
-       "            (drop_path1): Identity()\n",
-       "            (norm2): LayerNorm((384,), eps=1e-05, elementwise_affine=True)\n",
-       "            (mlp): Mlp(\n",
-       "              (fc1): Linear(in_features=384, out_features=1536, bias=True)\n",
-       "              (act): GELUTanh()\n",
-       "              (drop1): Dropout(p=0.0, inplace=False)\n",
-       "              (fc2): Linear(in_features=1536, out_features=384, bias=True)\n",
-       "              (drop2): Dropout(p=0.0, inplace=False)\n",
-       "            )\n",
-       "            (ls2): Identity()\n",
-       "            (drop_path2): Identity()\n",
-       "          )\n",
-       "          (attn_grid): PartitionAttentionCl(\n",
-       "            (norm1): LayerNorm((384,), eps=1e-05, elementwise_affine=True)\n",
-       "            (attn): AttentionCl(\n",
-       "              (qkv): Linear(in_features=384, out_features=1152, bias=True)\n",
-       "              (rel_pos): RelPosBiasTf()\n",
-       "              (attn_drop): Dropout(p=0.0, inplace=False)\n",
-       "              (proj): Linear(in_features=384, out_features=384, bias=True)\n",
-       "              (proj_drop): Dropout(p=0.0, inplace=False)\n",
-       "            )\n",
-       "            (ls1): Identity()\n",
-       "            (drop_path1): Identity()\n",
-       "            (norm2): LayerNorm((384,), eps=1e-05, elementwise_affine=True)\n",
-       "            (mlp): Mlp(\n",
-       "              (fc1): Linear(in_features=384, out_features=1536, bias=True)\n",
-       "              (act): GELUTanh()\n",
-       "              (drop1): Dropout(p=0.0, inplace=False)\n",
-       "              (fc2): Linear(in_features=1536, out_features=384, bias=True)\n",
-       "              (drop2): Dropout(p=0.0, inplace=False)\n",
-       "            )\n",
-       "            (ls2): Identity()\n",
-       "            (drop_path2): Identity()\n",
-       "          )\n",
-       "        )\n",
-       "      )\n",
-       "    )\n",
-       "    (2): MaxxVitStage(\n",
-       "      (blocks): Sequential(\n",
-       "        (0): MaxxVitBlock(\n",
-       "          (conv): MbConvBlock(\n",
-       "            (shortcut): Downsample2d(\n",
-       "              (pool): AvgPool2dSame(kernel_size=(2, 2), stride=(2, 2), padding=(0, 0))\n",
-       "              (expand): Conv2d(384, 768, kernel_size=(1, 1), stride=(1, 1))\n",
-       "            )\n",
-       "            (pre_norm): BatchNormAct2d(\n",
-       "              384, eps=0.001, momentum=0.1, affine=True, track_running_stats=True\n",
-       "              (drop): Identity()\n",
-       "              (act): Identity()\n",
-       "            )\n",
-       "            (down): Identity()\n",
-       "            (conv1_1x1): Conv2d(384, 3072, kernel_size=(1, 1), stride=(1, 1), bias=False)\n",
-       "            (norm1): BatchNormAct2d(\n",
-       "              3072, eps=0.001, momentum=0.1, affine=True, track_running_stats=True\n",
-       "              (drop): Identity()\n",
-       "              (act): GELUTanh()\n",
-       "            )\n",
-       "            (conv2_kxk): Conv2dSame(3072, 3072, kernel_size=(3, 3), stride=(2, 2), groups=3072, bias=False)\n",
-       "            (norm2): BatchNormAct2d(\n",
-       "              3072, eps=0.001, momentum=0.1, affine=True, track_running_stats=True\n",
-       "              (drop): Identity()\n",
-       "              (act): GELUTanh()\n",
-       "            )\n",
-       "            (se): SEModule(\n",
-       "              (fc1): Conv2d(3072, 192, kernel_size=(1, 1), stride=(1, 1))\n",
-       "              (bn): Identity()\n",
-       "              (act): SiLU(inplace=True)\n",
-       "              (fc2): Conv2d(192, 3072, kernel_size=(1, 1), stride=(1, 1))\n",
-       "              (gate): Sigmoid()\n",
-       "            )\n",
-       "            (conv3_1x1): Conv2d(3072, 768, kernel_size=(1, 1), stride=(1, 1))\n",
-       "            (drop_path): Identity()\n",
-       "          )\n",
-       "          (attn_block): PartitionAttentionCl(\n",
-       "            (norm1): LayerNorm((768,), eps=1e-05, elementwise_affine=True)\n",
-       "            (attn): AttentionCl(\n",
-       "              (qkv): Linear(in_features=768, out_features=2304, bias=True)\n",
-       "              (rel_pos): RelPosBiasTf()\n",
-       "              (attn_drop): Dropout(p=0.0, inplace=False)\n",
-       "              (proj): Linear(in_features=768, out_features=768, bias=True)\n",
-       "              (proj_drop): Dropout(p=0.0, inplace=False)\n",
-       "            )\n",
-       "            (ls1): Identity()\n",
-       "            (drop_path1): Identity()\n",
-       "            (norm2): LayerNorm((768,), eps=1e-05, elementwise_affine=True)\n",
-       "            (mlp): Mlp(\n",
-       "              (fc1): Linear(in_features=768, out_features=3072, bias=True)\n",
-       "              (act): GELUTanh()\n",
-       "              (drop1): Dropout(p=0.0, inplace=False)\n",
-       "              (fc2): Linear(in_features=3072, out_features=768, bias=True)\n",
-       "              (drop2): Dropout(p=0.0, inplace=False)\n",
-       "            )\n",
-       "            (ls2): Identity()\n",
-       "            (drop_path2): Identity()\n",
-       "          )\n",
-       "          (attn_grid): PartitionAttentionCl(\n",
-       "            (norm1): LayerNorm((768,), eps=1e-05, elementwise_affine=True)\n",
-       "            (attn): AttentionCl(\n",
-       "              (qkv): Linear(in_features=768, out_features=2304, bias=True)\n",
-       "              (rel_pos): RelPosBiasTf()\n",
-       "              (attn_drop): Dropout(p=0.0, inplace=False)\n",
-       "              (proj): Linear(in_features=768, out_features=768, bias=True)\n",
-       "              (proj_drop): Dropout(p=0.0, inplace=False)\n",
-       "            )\n",
-       "            (ls1): Identity()\n",
-       "            (drop_path1): Identity()\n",
-       "            (norm2): LayerNorm((768,), eps=1e-05, elementwise_affine=True)\n",
-       "            (mlp): Mlp(\n",
-       "              (fc1): Linear(in_features=768, out_features=3072, bias=True)\n",
-       "              (act): GELUTanh()\n",
-       "              (drop1): Dropout(p=0.0, inplace=False)\n",
-       "              (fc2): Linear(in_features=3072, out_features=768, bias=True)\n",
-       "              (drop2): Dropout(p=0.0, inplace=False)\n",
-       "            )\n",
-       "            (ls2): Identity()\n",
-       "            (drop_path2): Identity()\n",
-       "          )\n",
-       "        )\n",
-       "        (1): MaxxVitBlock(\n",
-       "          (conv): MbConvBlock(\n",
-       "            (shortcut): Identity()\n",
-       "            (pre_norm): BatchNormAct2d(\n",
-       "              768, eps=0.001, momentum=0.1, affine=True, track_running_stats=True\n",
-       "              (drop): Identity()\n",
-       "              (act): Identity()\n",
-       "            )\n",
-       "            (down): Identity()\n",
-       "            (conv1_1x1): Conv2d(768, 3072, kernel_size=(1, 1), stride=(1, 1), bias=False)\n",
-       "            (norm1): BatchNormAct2d(\n",
-       "              3072, eps=0.001, momentum=0.1, affine=True, track_running_stats=True\n",
-       "              (drop): Identity()\n",
-       "              (act): GELUTanh()\n",
-       "            )\n",
-       "            (conv2_kxk): Conv2d(3072, 3072, kernel_size=(3, 3), stride=(1, 1), padding=(1, 1), groups=3072, bias=False)\n",
-       "            (norm2): BatchNormAct2d(\n",
-       "              3072, eps=0.001, momentum=0.1, affine=True, track_running_stats=True\n",
-       "              (drop): Identity()\n",
-       "              (act): GELUTanh()\n",
-       "            )\n",
-       "            (se): SEModule(\n",
-       "              (fc1): Conv2d(3072, 192, kernel_size=(1, 1), stride=(1, 1))\n",
-       "              (bn): Identity()\n",
-       "              (act): SiLU(inplace=True)\n",
-       "              (fc2): Conv2d(192, 3072, kernel_size=(1, 1), stride=(1, 1))\n",
-       "              (gate): Sigmoid()\n",
-       "            )\n",
-       "            (conv3_1x1): Conv2d(3072, 768, kernel_size=(1, 1), stride=(1, 1))\n",
-       "            (drop_path): Identity()\n",
-       "          )\n",
-       "          (attn_block): PartitionAttentionCl(\n",
-       "            (norm1): LayerNorm((768,), eps=1e-05, elementwise_affine=True)\n",
-       "            (attn): AttentionCl(\n",
-       "              (qkv): Linear(in_features=768, out_features=2304, bias=True)\n",
-       "              (rel_pos): RelPosBiasTf()\n",
-       "              (attn_drop): Dropout(p=0.0, inplace=False)\n",
-       "              (proj): Linear(in_features=768, out_features=768, bias=True)\n",
-       "              (proj_drop): Dropout(p=0.0, inplace=False)\n",
-       "            )\n",
-       "            (ls1): Identity()\n",
-       "            (drop_path1): Identity()\n",
-       "            (norm2): LayerNorm((768,), eps=1e-05, elementwise_affine=True)\n",
-       "            (mlp): Mlp(\n",
-       "              (fc1): Linear(in_features=768, out_features=3072, bias=True)\n",
-       "              (act): GELUTanh()\n",
-       "              (drop1): Dropout(p=0.0, inplace=False)\n",
-       "              (fc2): Linear(in_features=3072, out_features=768, bias=True)\n",
-       "              (drop2): Dropout(p=0.0, inplace=False)\n",
-       "            )\n",
-       "            (ls2): Identity()\n",
-       "            (drop_path2): Identity()\n",
-       "          )\n",
-       "          (attn_grid): PartitionAttentionCl(\n",
-       "            (norm1): LayerNorm((768,), eps=1e-05, elementwise_affine=True)\n",
-       "            (attn): AttentionCl(\n",
-       "              (qkv): Linear(in_features=768, out_features=2304, bias=True)\n",
-       "              (rel_pos): RelPosBiasTf()\n",
-       "              (attn_drop): Dropout(p=0.0, inplace=False)\n",
-       "              (proj): Linear(in_features=768, out_features=768, bias=True)\n",
-       "              (proj_drop): Dropout(p=0.0, inplace=False)\n",
-       "            )\n",
-       "            (ls1): Identity()\n",
-       "            (drop_path1): Identity()\n",
-       "            (norm2): LayerNorm((768,), eps=1e-05, elementwise_affine=True)\n",
-       "            (mlp): Mlp(\n",
-       "              (fc1): Linear(in_features=768, out_features=3072, bias=True)\n",
-       "              (act): GELUTanh()\n",
-       "              (drop1): Dropout(p=0.0, inplace=False)\n",
-       "              (fc2): Linear(in_features=3072, out_features=768, bias=True)\n",
-       "              (drop2): Dropout(p=0.0, inplace=False)\n",
-       "            )\n",
-       "            (ls2): Identity()\n",
-       "            (drop_path2): Identity()\n",
-       "          )\n",
-       "        )\n",
-       "        (2): MaxxVitBlock(\n",
-       "          (conv): MbConvBlock(\n",
-       "            (shortcut): Identity()\n",
-       "            (pre_norm): BatchNormAct2d(\n",
-       "              768, eps=0.001, momentum=0.1, affine=True, track_running_stats=True\n",
-       "              (drop): Identity()\n",
-       "              (act): Identity()\n",
-       "            )\n",
-       "            (down): Identity()\n",
-       "            (conv1_1x1): Conv2d(768, 3072, kernel_size=(1, 1), stride=(1, 1), bias=False)\n",
-       "            (norm1): BatchNormAct2d(\n",
-       "              3072, eps=0.001, momentum=0.1, affine=True, track_running_stats=True\n",
-       "              (drop): Identity()\n",
-       "              (act): GELUTanh()\n",
-       "            )\n",
-       "            (conv2_kxk): Conv2d(3072, 3072, kernel_size=(3, 3), stride=(1, 1), padding=(1, 1), groups=3072, bias=False)\n",
-       "            (norm2): BatchNormAct2d(\n",
-       "              3072, eps=0.001, momentum=0.1, affine=True, track_running_stats=True\n",
-       "              (drop): Identity()\n",
-       "              (act): GELUTanh()\n",
-       "            )\n",
-       "            (se): SEModule(\n",
-       "              (fc1): Conv2d(3072, 192, kernel_size=(1, 1), stride=(1, 1))\n",
-       "              (bn): Identity()\n",
-       "              (act): SiLU(inplace=True)\n",
-       "              (fc2): Conv2d(192, 3072, kernel_size=(1, 1), stride=(1, 1))\n",
-       "              (gate): Sigmoid()\n",
-       "            )\n",
-       "            (conv3_1x1): Conv2d(3072, 768, kernel_size=(1, 1), stride=(1, 1))\n",
-       "            (drop_path): Identity()\n",
-       "          )\n",
-       "          (attn_block): PartitionAttentionCl(\n",
-       "            (norm1): LayerNorm((768,), eps=1e-05, elementwise_affine=True)\n",
-       "            (attn): AttentionCl(\n",
-       "              (qkv): Linear(in_features=768, out_features=2304, bias=True)\n",
-       "              (rel_pos): RelPosBiasTf()\n",
-       "              (attn_drop): Dropout(p=0.0, inplace=False)\n",
-       "              (proj): Linear(in_features=768, out_features=768, bias=True)\n",
-       "              (proj_drop): Dropout(p=0.0, inplace=False)\n",
-       "            )\n",
-       "            (ls1): Identity()\n",
-       "            (drop_path1): Identity()\n",
-       "            (norm2): LayerNorm((768,), eps=1e-05, elementwise_affine=True)\n",
-       "            (mlp): Mlp(\n",
-       "              (fc1): Linear(in_features=768, out_features=3072, bias=True)\n",
-       "              (act): GELUTanh()\n",
-       "              (drop1): Dropout(p=0.0, inplace=False)\n",
-       "              (fc2): Linear(in_features=3072, out_features=768, bias=True)\n",
-       "              (drop2): Dropout(p=0.0, inplace=False)\n",
-       "            )\n",
-       "            (ls2): Identity()\n",
-       "            (drop_path2): Identity()\n",
-       "          )\n",
-       "          (attn_grid): PartitionAttentionCl(\n",
-       "            (norm1): LayerNorm((768,), eps=1e-05, elementwise_affine=True)\n",
-       "            (attn): AttentionCl(\n",
-       "              (qkv): Linear(in_features=768, out_features=2304, bias=True)\n",
-       "              (rel_pos): RelPosBiasTf()\n",
-       "              (attn_drop): Dropout(p=0.0, inplace=False)\n",
-       "              (proj): Linear(in_features=768, out_features=768, bias=True)\n",
-       "              (proj_drop): Dropout(p=0.0, inplace=False)\n",
-       "            )\n",
-       "            (ls1): Identity()\n",
-       "            (drop_path1): Identity()\n",
-       "            (norm2): LayerNorm((768,), eps=1e-05, elementwise_affine=True)\n",
-       "            (mlp): Mlp(\n",
-       "              (fc1): Linear(in_features=768, out_features=3072, bias=True)\n",
-       "              (act): GELUTanh()\n",
-       "              (drop1): Dropout(p=0.0, inplace=False)\n",
-       "              (fc2): Linear(in_features=3072, out_features=768, bias=True)\n",
-       "              (drop2): Dropout(p=0.0, inplace=False)\n",
-       "            )\n",
-       "            (ls2): Identity()\n",
-       "            (drop_path2): Identity()\n",
-       "          )\n",
-       "        )\n",
-       "        (3): MaxxVitBlock(\n",
-       "          (conv): MbConvBlock(\n",
-       "            (shortcut): Identity()\n",
-       "            (pre_norm): BatchNormAct2d(\n",
-       "              768, eps=0.001, momentum=0.1, affine=True, track_running_stats=True\n",
-       "              (drop): Identity()\n",
-       "              (act): Identity()\n",
-       "            )\n",
-       "            (down): Identity()\n",
-       "            (conv1_1x1): Conv2d(768, 3072, kernel_size=(1, 1), stride=(1, 1), bias=False)\n",
-       "            (norm1): BatchNormAct2d(\n",
-       "              3072, eps=0.001, momentum=0.1, affine=True, track_running_stats=True\n",
-       "              (drop): Identity()\n",
-       "              (act): GELUTanh()\n",
-       "            )\n",
-       "            (conv2_kxk): Conv2d(3072, 3072, kernel_size=(3, 3), stride=(1, 1), padding=(1, 1), groups=3072, bias=False)\n",
-       "            (norm2): BatchNormAct2d(\n",
-       "              3072, eps=0.001, momentum=0.1, affine=True, track_running_stats=True\n",
-       "              (drop): Identity()\n",
-       "              (act): GELUTanh()\n",
-       "            )\n",
-       "            (se): SEModule(\n",
-       "              (fc1): Conv2d(3072, 192, kernel_size=(1, 1), stride=(1, 1))\n",
-       "              (bn): Identity()\n",
-       "              (act): SiLU(inplace=True)\n",
-       "              (fc2): Conv2d(192, 3072, kernel_size=(1, 1), stride=(1, 1))\n",
-       "              (gate): Sigmoid()\n",
-       "            )\n",
-       "            (conv3_1x1): Conv2d(3072, 768, kernel_size=(1, 1), stride=(1, 1))\n",
-       "            (drop_path): Identity()\n",
-       "          )\n",
-       "          (attn_block): PartitionAttentionCl(\n",
-       "            (norm1): LayerNorm((768,), eps=1e-05, elementwise_affine=True)\n",
-       "            (attn): AttentionCl(\n",
-       "              (qkv): Linear(in_features=768, out_features=2304, bias=True)\n",
-       "              (rel_pos): RelPosBiasTf()\n",
-       "              (attn_drop): Dropout(p=0.0, inplace=False)\n",
-       "              (proj): Linear(in_features=768, out_features=768, bias=True)\n",
-       "              (proj_drop): Dropout(p=0.0, inplace=False)\n",
-       "            )\n",
-       "            (ls1): Identity()\n",
-       "            (drop_path1): Identity()\n",
-       "            (norm2): LayerNorm((768,), eps=1e-05, elementwise_affine=True)\n",
-       "            (mlp): Mlp(\n",
-       "              (fc1): Linear(in_features=768, out_features=3072, bias=True)\n",
-       "              (act): GELUTanh()\n",
-       "              (drop1): Dropout(p=0.0, inplace=False)\n",
-       "              (fc2): Linear(in_features=3072, out_features=768, bias=True)\n",
-       "              (drop2): Dropout(p=0.0, inplace=False)\n",
-       "            )\n",
-       "            (ls2): Identity()\n",
-       "            (drop_path2): Identity()\n",
-       "          )\n",
-       "          (attn_grid): PartitionAttentionCl(\n",
-       "            (norm1): LayerNorm((768,), eps=1e-05, elementwise_affine=True)\n",
-       "            (attn): AttentionCl(\n",
-       "              (qkv): Linear(in_features=768, out_features=2304, bias=True)\n",
-       "              (rel_pos): RelPosBiasTf()\n",
-       "              (attn_drop): Dropout(p=0.0, inplace=False)\n",
-       "              (proj): Linear(in_features=768, out_features=768, bias=True)\n",
-       "              (proj_drop): Dropout(p=0.0, inplace=False)\n",
-       "            )\n",
-       "            (ls1): Identity()\n",
-       "            (drop_path1): Identity()\n",
-       "            (norm2): LayerNorm((768,), eps=1e-05, elementwise_affine=True)\n",
-       "            (mlp): Mlp(\n",
-       "              (fc1): Linear(in_features=768, out_features=3072, bias=True)\n",
-       "              (act): GELUTanh()\n",
-       "              (drop1): Dropout(p=0.0, inplace=False)\n",
-       "              (fc2): Linear(in_features=3072, out_features=768, bias=True)\n",
-       "              (drop2): Dropout(p=0.0, inplace=False)\n",
-       "            )\n",
-       "            (ls2): Identity()\n",
-       "            (drop_path2): Identity()\n",
-       "          )\n",
-       "        )\n",
-       "        (4): MaxxVitBlock(\n",
-       "          (conv): MbConvBlock(\n",
-       "            (shortcut): Identity()\n",
-       "            (pre_norm): BatchNormAct2d(\n",
-       "              768, eps=0.001, momentum=0.1, affine=True, track_running_stats=True\n",
-       "              (drop): Identity()\n",
-       "              (act): Identity()\n",
-       "            )\n",
-       "            (down): Identity()\n",
-       "            (conv1_1x1): Conv2d(768, 3072, kernel_size=(1, 1), stride=(1, 1), bias=False)\n",
-       "            (norm1): BatchNormAct2d(\n",
-       "              3072, eps=0.001, momentum=0.1, affine=True, track_running_stats=True\n",
-       "              (drop): Identity()\n",
-       "              (act): GELUTanh()\n",
-       "            )\n",
-       "            (conv2_kxk): Conv2d(3072, 3072, kernel_size=(3, 3), stride=(1, 1), padding=(1, 1), groups=3072, bias=False)\n",
-       "            (norm2): BatchNormAct2d(\n",
-       "              3072, eps=0.001, momentum=0.1, affine=True, track_running_stats=True\n",
-       "              (drop): Identity()\n",
-       "              (act): GELUTanh()\n",
-       "            )\n",
-       "            (se): SEModule(\n",
-       "              (fc1): Conv2d(3072, 192, kernel_size=(1, 1), stride=(1, 1))\n",
-       "              (bn): Identity()\n",
-       "              (act): SiLU(inplace=True)\n",
-       "              (fc2): Conv2d(192, 3072, kernel_size=(1, 1), stride=(1, 1))\n",
-       "              (gate): Sigmoid()\n",
-       "            )\n",
-       "            (conv3_1x1): Conv2d(3072, 768, kernel_size=(1, 1), stride=(1, 1))\n",
-       "            (drop_path): Identity()\n",
-       "          )\n",
-       "          (attn_block): PartitionAttentionCl(\n",
-       "            (norm1): LayerNorm((768,), eps=1e-05, elementwise_affine=True)\n",
-       "            (attn): AttentionCl(\n",
-       "              (qkv): Linear(in_features=768, out_features=2304, bias=True)\n",
-       "              (rel_pos): RelPosBiasTf()\n",
-       "              (attn_drop): Dropout(p=0.0, inplace=False)\n",
-       "              (proj): Linear(in_features=768, out_features=768, bias=True)\n",
-       "              (proj_drop): Dropout(p=0.0, inplace=False)\n",
-       "            )\n",
-       "            (ls1): Identity()\n",
-       "            (drop_path1): Identity()\n",
-       "            (norm2): LayerNorm((768,), eps=1e-05, elementwise_affine=True)\n",
-       "            (mlp): Mlp(\n",
-       "              (fc1): Linear(in_features=768, out_features=3072, bias=True)\n",
-       "              (act): GELUTanh()\n",
-       "              (drop1): Dropout(p=0.0, inplace=False)\n",
-       "              (fc2): Linear(in_features=3072, out_features=768, bias=True)\n",
-       "              (drop2): Dropout(p=0.0, inplace=False)\n",
-       "            )\n",
-       "            (ls2): Identity()\n",
-       "            (drop_path2): Identity()\n",
-       "          )\n",
-       "          (attn_grid): PartitionAttentionCl(\n",
-       "            (norm1): LayerNorm((768,), eps=1e-05, elementwise_affine=True)\n",
-       "            (attn): AttentionCl(\n",
-       "              (qkv): Linear(in_features=768, out_features=2304, bias=True)\n",
-       "              (rel_pos): RelPosBiasTf()\n",
-       "              (attn_drop): Dropout(p=0.0, inplace=False)\n",
-       "              (proj): Linear(in_features=768, out_features=768, bias=True)\n",
-       "              (proj_drop): Dropout(p=0.0, inplace=False)\n",
-       "            )\n",
-       "            (ls1): Identity()\n",
-       "            (drop_path1): Identity()\n",
-       "            (norm2): LayerNorm((768,), eps=1e-05, elementwise_affine=True)\n",
-       "            (mlp): Mlp(\n",
-       "              (fc1): Linear(in_features=768, out_features=3072, bias=True)\n",
-       "              (act): GELUTanh()\n",
-       "              (drop1): Dropout(p=0.0, inplace=False)\n",
-       "              (fc2): Linear(in_features=3072, out_features=768, bias=True)\n",
-       "              (drop2): Dropout(p=0.0, inplace=False)\n",
-       "            )\n",
-       "            (ls2): Identity()\n",
-       "            (drop_path2): Identity()\n",
-       "          )\n",
-       "        )\n",
-       "        (5): MaxxVitBlock(\n",
-       "          (conv): MbConvBlock(\n",
-       "            (shortcut): Identity()\n",
-       "            (pre_norm): BatchNormAct2d(\n",
-       "              768, eps=0.001, momentum=0.1, affine=True, track_running_stats=True\n",
-       "              (drop): Identity()\n",
-       "              (act): Identity()\n",
-       "            )\n",
-       "            (down): Identity()\n",
-       "            (conv1_1x1): Conv2d(768, 3072, kernel_size=(1, 1), stride=(1, 1), bias=False)\n",
-       "            (norm1): BatchNormAct2d(\n",
-       "              3072, eps=0.001, momentum=0.1, affine=True, track_running_stats=True\n",
-       "              (drop): Identity()\n",
-       "              (act): GELUTanh()\n",
-       "            )\n",
-       "            (conv2_kxk): Conv2d(3072, 3072, kernel_size=(3, 3), stride=(1, 1), padding=(1, 1), groups=3072, bias=False)\n",
-       "            (norm2): BatchNormAct2d(\n",
-       "              3072, eps=0.001, momentum=0.1, affine=True, track_running_stats=True\n",
-       "              (drop): Identity()\n",
-       "              (act): GELUTanh()\n",
-       "            )\n",
-       "            (se): SEModule(\n",
-       "              (fc1): Conv2d(3072, 192, kernel_size=(1, 1), stride=(1, 1))\n",
-       "              (bn): Identity()\n",
-       "              (act): SiLU(inplace=True)\n",
-       "              (fc2): Conv2d(192, 3072, kernel_size=(1, 1), stride=(1, 1))\n",
-       "              (gate): Sigmoid()\n",
-       "            )\n",
-       "            (conv3_1x1): Conv2d(3072, 768, kernel_size=(1, 1), stride=(1, 1))\n",
-       "            (drop_path): Identity()\n",
-       "          )\n",
-       "          (attn_block): PartitionAttentionCl(\n",
-       "            (norm1): LayerNorm((768,), eps=1e-05, elementwise_affine=True)\n",
-       "            (attn): AttentionCl(\n",
-       "              (qkv): Linear(in_features=768, out_features=2304, bias=True)\n",
-       "              (rel_pos): RelPosBiasTf()\n",
-       "              (attn_drop): Dropout(p=0.0, inplace=False)\n",
-       "              (proj): Linear(in_features=768, out_features=768, bias=True)\n",
-       "              (proj_drop): Dropout(p=0.0, inplace=False)\n",
-       "            )\n",
-       "            (ls1): Identity()\n",
-       "            (drop_path1): Identity()\n",
-       "            (norm2): LayerNorm((768,), eps=1e-05, elementwise_affine=True)\n",
-       "            (mlp): Mlp(\n",
-       "              (fc1): Linear(in_features=768, out_features=3072, bias=True)\n",
-       "              (act): GELUTanh()\n",
-       "              (drop1): Dropout(p=0.0, inplace=False)\n",
-       "              (fc2): Linear(in_features=3072, out_features=768, bias=True)\n",
-       "              (drop2): Dropout(p=0.0, inplace=False)\n",
-       "            )\n",
-       "            (ls2): Identity()\n",
-       "            (drop_path2): Identity()\n",
-       "          )\n",
-       "          (attn_grid): PartitionAttentionCl(\n",
-       "            (norm1): LayerNorm((768,), eps=1e-05, elementwise_affine=True)\n",
-       "            (attn): AttentionCl(\n",
-       "              (qkv): Linear(in_features=768, out_features=2304, bias=True)\n",
-       "              (rel_pos): RelPosBiasTf()\n",
-       "              (attn_drop): Dropout(p=0.0, inplace=False)\n",
-       "              (proj): Linear(in_features=768, out_features=768, bias=True)\n",
-       "              (proj_drop): Dropout(p=0.0, inplace=False)\n",
-       "            )\n",
-       "            (ls1): Identity()\n",
-       "            (drop_path1): Identity()\n",
-       "            (norm2): LayerNorm((768,), eps=1e-05, elementwise_affine=True)\n",
-       "            (mlp): Mlp(\n",
-       "              (fc1): Linear(in_features=768, out_features=3072, bias=True)\n",
-       "              (act): GELUTanh()\n",
-       "              (drop1): Dropout(p=0.0, inplace=False)\n",
-       "              (fc2): Linear(in_features=3072, out_features=768, bias=True)\n",
-       "              (drop2): Dropout(p=0.0, inplace=False)\n",
-       "            )\n",
-       "            (ls2): Identity()\n",
-       "            (drop_path2): Identity()\n",
-       "          )\n",
-       "        )\n",
-       "        (6): MaxxVitBlock(\n",
-       "          (conv): MbConvBlock(\n",
-       "            (shortcut): Identity()\n",
-       "            (pre_norm): BatchNormAct2d(\n",
-       "              768, eps=0.001, momentum=0.1, affine=True, track_running_stats=True\n",
-       "              (drop): Identity()\n",
-       "              (act): Identity()\n",
-       "            )\n",
-       "            (down): Identity()\n",
-       "            (conv1_1x1): Conv2d(768, 3072, kernel_size=(1, 1), stride=(1, 1), bias=False)\n",
-       "            (norm1): BatchNormAct2d(\n",
-       "              3072, eps=0.001, momentum=0.1, affine=True, track_running_stats=True\n",
-       "              (drop): Identity()\n",
-       "              (act): GELUTanh()\n",
-       "            )\n",
-       "            (conv2_kxk): Conv2d(3072, 3072, kernel_size=(3, 3), stride=(1, 1), padding=(1, 1), groups=3072, bias=False)\n",
-       "            (norm2): BatchNormAct2d(\n",
-       "              3072, eps=0.001, momentum=0.1, affine=True, track_running_stats=True\n",
-       "              (drop): Identity()\n",
-       "              (act): GELUTanh()\n",
-       "            )\n",
-       "            (se): SEModule(\n",
-       "              (fc1): Conv2d(3072, 192, kernel_size=(1, 1), stride=(1, 1))\n",
-       "              (bn): Identity()\n",
-       "              (act): SiLU(inplace=True)\n",
-       "              (fc2): Conv2d(192, 3072, kernel_size=(1, 1), stride=(1, 1))\n",
-       "              (gate): Sigmoid()\n",
-       "            )\n",
-       "            (conv3_1x1): Conv2d(3072, 768, kernel_size=(1, 1), stride=(1, 1))\n",
-       "            (drop_path): Identity()\n",
-       "          )\n",
-       "          (attn_block): PartitionAttentionCl(\n",
-       "            (norm1): LayerNorm((768,), eps=1e-05, elementwise_affine=True)\n",
-       "            (attn): AttentionCl(\n",
-       "              (qkv): Linear(in_features=768, out_features=2304, bias=True)\n",
-       "              (rel_pos): RelPosBiasTf()\n",
-       "              (attn_drop): Dropout(p=0.0, inplace=False)\n",
-       "              (proj): Linear(in_features=768, out_features=768, bias=True)\n",
-       "              (proj_drop): Dropout(p=0.0, inplace=False)\n",
-       "            )\n",
-       "            (ls1): Identity()\n",
-       "            (drop_path1): Identity()\n",
-       "            (norm2): LayerNorm((768,), eps=1e-05, elementwise_affine=True)\n",
-       "            (mlp): Mlp(\n",
-       "              (fc1): Linear(in_features=768, out_features=3072, bias=True)\n",
-       "              (act): GELUTanh()\n",
-       "              (drop1): Dropout(p=0.0, inplace=False)\n",
-       "              (fc2): Linear(in_features=3072, out_features=768, bias=True)\n",
-       "              (drop2): Dropout(p=0.0, inplace=False)\n",
-       "            )\n",
-       "            (ls2): Identity()\n",
-       "            (drop_path2): Identity()\n",
-       "          )\n",
-       "          (attn_grid): PartitionAttentionCl(\n",
-       "            (norm1): LayerNorm((768,), eps=1e-05, elementwise_affine=True)\n",
-       "            (attn): AttentionCl(\n",
-       "              (qkv): Linear(in_features=768, out_features=2304, bias=True)\n",
-       "              (rel_pos): RelPosBiasTf()\n",
-       "              (attn_drop): Dropout(p=0.0, inplace=False)\n",
-       "              (proj): Linear(in_features=768, out_features=768, bias=True)\n",
-       "              (proj_drop): Dropout(p=0.0, inplace=False)\n",
-       "            )\n",
-       "            (ls1): Identity()\n",
-       "            (drop_path1): Identity()\n",
-       "            (norm2): LayerNorm((768,), eps=1e-05, elementwise_affine=True)\n",
-       "            (mlp): Mlp(\n",
-       "              (fc1): Linear(in_features=768, out_features=3072, bias=True)\n",
-       "              (act): GELUTanh()\n",
-       "              (drop1): Dropout(p=0.0, inplace=False)\n",
-       "              (fc2): Linear(in_features=3072, out_features=768, bias=True)\n",
-       "              (drop2): Dropout(p=0.0, inplace=False)\n",
-       "            )\n",
-       "            (ls2): Identity()\n",
-       "            (drop_path2): Identity()\n",
-       "          )\n",
-       "        )\n",
-       "        (7): MaxxVitBlock(\n",
-       "          (conv): MbConvBlock(\n",
-       "            (shortcut): Identity()\n",
-       "            (pre_norm): BatchNormAct2d(\n",
-       "              768, eps=0.001, momentum=0.1, affine=True, track_running_stats=True\n",
-       "              (drop): Identity()\n",
-       "              (act): Identity()\n",
-       "            )\n",
-       "            (down): Identity()\n",
-       "            (conv1_1x1): Conv2d(768, 3072, kernel_size=(1, 1), stride=(1, 1), bias=False)\n",
-       "            (norm1): BatchNormAct2d(\n",
-       "              3072, eps=0.001, momentum=0.1, affine=True, track_running_stats=True\n",
-       "              (drop): Identity()\n",
-       "              (act): GELUTanh()\n",
-       "            )\n",
-       "            (conv2_kxk): Conv2d(3072, 3072, kernel_size=(3, 3), stride=(1, 1), padding=(1, 1), groups=3072, bias=False)\n",
-       "            (norm2): BatchNormAct2d(\n",
-       "              3072, eps=0.001, momentum=0.1, affine=True, track_running_stats=True\n",
-       "              (drop): Identity()\n",
-       "              (act): GELUTanh()\n",
-       "            )\n",
-       "            (se): SEModule(\n",
-       "              (fc1): Conv2d(3072, 192, kernel_size=(1, 1), stride=(1, 1))\n",
-       "              (bn): Identity()\n",
-       "              (act): SiLU(inplace=True)\n",
-       "              (fc2): Conv2d(192, 3072, kernel_size=(1, 1), stride=(1, 1))\n",
-       "              (gate): Sigmoid()\n",
-       "            )\n",
-       "            (conv3_1x1): Conv2d(3072, 768, kernel_size=(1, 1), stride=(1, 1))\n",
-       "            (drop_path): Identity()\n",
-       "          )\n",
-       "          (attn_block): PartitionAttentionCl(\n",
-       "            (norm1): LayerNorm((768,), eps=1e-05, elementwise_affine=True)\n",
-       "            (attn): AttentionCl(\n",
-       "              (qkv): Linear(in_features=768, out_features=2304, bias=True)\n",
-       "              (rel_pos): RelPosBiasTf()\n",
-       "              (attn_drop): Dropout(p=0.0, inplace=False)\n",
-       "              (proj): Linear(in_features=768, out_features=768, bias=True)\n",
-       "              (proj_drop): Dropout(p=0.0, inplace=False)\n",
-       "            )\n",
-       "            (ls1): Identity()\n",
-       "            (drop_path1): Identity()\n",
-       "            (norm2): LayerNorm((768,), eps=1e-05, elementwise_affine=True)\n",
-       "            (mlp): Mlp(\n",
-       "              (fc1): Linear(in_features=768, out_features=3072, bias=True)\n",
-       "              (act): GELUTanh()\n",
-       "              (drop1): Dropout(p=0.0, inplace=False)\n",
-       "              (fc2): Linear(in_features=3072, out_features=768, bias=True)\n",
-       "              (drop2): Dropout(p=0.0, inplace=False)\n",
-       "            )\n",
-       "            (ls2): Identity()\n",
-       "            (drop_path2): Identity()\n",
-       "          )\n",
-       "          (attn_grid): PartitionAttentionCl(\n",
-       "            (norm1): LayerNorm((768,), eps=1e-05, elementwise_affine=True)\n",
-       "            (attn): AttentionCl(\n",
-       "              (qkv): Linear(in_features=768, out_features=2304, bias=True)\n",
-       "              (rel_pos): RelPosBiasTf()\n",
-       "              (attn_drop): Dropout(p=0.0, inplace=False)\n",
-       "              (proj): Linear(in_features=768, out_features=768, bias=True)\n",
-       "              (proj_drop): Dropout(p=0.0, inplace=False)\n",
-       "            )\n",
-       "            (ls1): Identity()\n",
-       "            (drop_path1): Identity()\n",
-       "            (norm2): LayerNorm((768,), eps=1e-05, elementwise_affine=True)\n",
-       "            (mlp): Mlp(\n",
-       "              (fc1): Linear(in_features=768, out_features=3072, bias=True)\n",
-       "              (act): GELUTanh()\n",
-       "              (drop1): Dropout(p=0.0, inplace=False)\n",
-       "              (fc2): Linear(in_features=3072, out_features=768, bias=True)\n",
-       "              (drop2): Dropout(p=0.0, inplace=False)\n",
-       "            )\n",
-       "            (ls2): Identity()\n",
-       "            (drop_path2): Identity()\n",
-       "          )\n",
-       "        )\n",
-       "        (8): MaxxVitBlock(\n",
-       "          (conv): MbConvBlock(\n",
-       "            (shortcut): Identity()\n",
-       "            (pre_norm): BatchNormAct2d(\n",
-       "              768, eps=0.001, momentum=0.1, affine=True, track_running_stats=True\n",
-       "              (drop): Identity()\n",
-       "              (act): Identity()\n",
-       "            )\n",
-       "            (down): Identity()\n",
-       "            (conv1_1x1): Conv2d(768, 3072, kernel_size=(1, 1), stride=(1, 1), bias=False)\n",
-       "            (norm1): BatchNormAct2d(\n",
-       "              3072, eps=0.001, momentum=0.1, affine=True, track_running_stats=True\n",
-       "              (drop): Identity()\n",
-       "              (act): GELUTanh()\n",
-       "            )\n",
-       "            (conv2_kxk): Conv2d(3072, 3072, kernel_size=(3, 3), stride=(1, 1), padding=(1, 1), groups=3072, bias=False)\n",
-       "            (norm2): BatchNormAct2d(\n",
-       "              3072, eps=0.001, momentum=0.1, affine=True, track_running_stats=True\n",
-       "              (drop): Identity()\n",
-       "              (act): GELUTanh()\n",
-       "            )\n",
-       "            (se): SEModule(\n",
-       "              (fc1): Conv2d(3072, 192, kernel_size=(1, 1), stride=(1, 1))\n",
-       "              (bn): Identity()\n",
-       "              (act): SiLU(inplace=True)\n",
-       "              (fc2): Conv2d(192, 3072, kernel_size=(1, 1), stride=(1, 1))\n",
-       "              (gate): Sigmoid()\n",
-       "            )\n",
-       "            (conv3_1x1): Conv2d(3072, 768, kernel_size=(1, 1), stride=(1, 1))\n",
-       "            (drop_path): Identity()\n",
-       "          )\n",
-       "          (attn_block): PartitionAttentionCl(\n",
-       "            (norm1): LayerNorm((768,), eps=1e-05, elementwise_affine=True)\n",
-       "            (attn): AttentionCl(\n",
-       "              (qkv): Linear(in_features=768, out_features=2304, bias=True)\n",
-       "              (rel_pos): RelPosBiasTf()\n",
-       "              (attn_drop): Dropout(p=0.0, inplace=False)\n",
-       "              (proj): Linear(in_features=768, out_features=768, bias=True)\n",
-       "              (proj_drop): Dropout(p=0.0, inplace=False)\n",
-       "            )\n",
-       "            (ls1): Identity()\n",
-       "            (drop_path1): Identity()\n",
-       "            (norm2): LayerNorm((768,), eps=1e-05, elementwise_affine=True)\n",
-       "            (mlp): Mlp(\n",
-       "              (fc1): Linear(in_features=768, out_features=3072, bias=True)\n",
-       "              (act): GELUTanh()\n",
-       "              (drop1): Dropout(p=0.0, inplace=False)\n",
-       "              (fc2): Linear(in_features=3072, out_features=768, bias=True)\n",
-       "              (drop2): Dropout(p=0.0, inplace=False)\n",
-       "            )\n",
-       "            (ls2): Identity()\n",
-       "            (drop_path2): Identity()\n",
-       "          )\n",
-       "          (attn_grid): PartitionAttentionCl(\n",
-       "            (norm1): LayerNorm((768,), eps=1e-05, elementwise_affine=True)\n",
-       "            (attn): AttentionCl(\n",
-       "              (qkv): Linear(in_features=768, out_features=2304, bias=True)\n",
-       "              (rel_pos): RelPosBiasTf()\n",
-       "              (attn_drop): Dropout(p=0.0, inplace=False)\n",
-       "              (proj): Linear(in_features=768, out_features=768, bias=True)\n",
-       "              (proj_drop): Dropout(p=0.0, inplace=False)\n",
-       "            )\n",
-       "            (ls1): Identity()\n",
-       "            (drop_path1): Identity()\n",
-       "            (norm2): LayerNorm((768,), eps=1e-05, elementwise_affine=True)\n",
-       "            (mlp): Mlp(\n",
-       "              (fc1): Linear(in_features=768, out_features=3072, bias=True)\n",
-       "              (act): GELUTanh()\n",
-       "              (drop1): Dropout(p=0.0, inplace=False)\n",
-       "              (fc2): Linear(in_features=3072, out_features=768, bias=True)\n",
-       "              (drop2): Dropout(p=0.0, inplace=False)\n",
-       "            )\n",
-       "            (ls2): Identity()\n",
-       "            (drop_path2): Identity()\n",
-       "          )\n",
-       "        )\n",
-       "        (9): MaxxVitBlock(\n",
-       "          (conv): MbConvBlock(\n",
-       "            (shortcut): Identity()\n",
-       "            (pre_norm): BatchNormAct2d(\n",
-       "              768, eps=0.001, momentum=0.1, affine=True, track_running_stats=True\n",
-       "              (drop): Identity()\n",
-       "              (act): Identity()\n",
-       "            )\n",
-       "            (down): Identity()\n",
-       "            (conv1_1x1): Conv2d(768, 3072, kernel_size=(1, 1), stride=(1, 1), bias=False)\n",
-       "            (norm1): BatchNormAct2d(\n",
-       "              3072, eps=0.001, momentum=0.1, affine=True, track_running_stats=True\n",
-       "              (drop): Identity()\n",
-       "              (act): GELUTanh()\n",
-       "            )\n",
-       "            (conv2_kxk): Conv2d(3072, 3072, kernel_size=(3, 3), stride=(1, 1), padding=(1, 1), groups=3072, bias=False)\n",
-       "            (norm2): BatchNormAct2d(\n",
-       "              3072, eps=0.001, momentum=0.1, affine=True, track_running_stats=True\n",
-       "              (drop): Identity()\n",
-       "              (act): GELUTanh()\n",
-       "            )\n",
-       "            (se): SEModule(\n",
-       "              (fc1): Conv2d(3072, 192, kernel_size=(1, 1), stride=(1, 1))\n",
-       "              (bn): Identity()\n",
-       "              (act): SiLU(inplace=True)\n",
-       "              (fc2): Conv2d(192, 3072, kernel_size=(1, 1), stride=(1, 1))\n",
-       "              (gate): Sigmoid()\n",
-       "            )\n",
-       "            (conv3_1x1): Conv2d(3072, 768, kernel_size=(1, 1), stride=(1, 1))\n",
-       "            (drop_path): Identity()\n",
-       "          )\n",
-       "          (attn_block): PartitionAttentionCl(\n",
-       "            (norm1): LayerNorm((768,), eps=1e-05, elementwise_affine=True)\n",
-       "            (attn): AttentionCl(\n",
-       "              (qkv): Linear(in_features=768, out_features=2304, bias=True)\n",
-       "              (rel_pos): RelPosBiasTf()\n",
-       "              (attn_drop): Dropout(p=0.0, inplace=False)\n",
-       "              (proj): Linear(in_features=768, out_features=768, bias=True)\n",
-       "              (proj_drop): Dropout(p=0.0, inplace=False)\n",
-       "            )\n",
-       "            (ls1): Identity()\n",
-       "            (drop_path1): Identity()\n",
-       "            (norm2): LayerNorm((768,), eps=1e-05, elementwise_affine=True)\n",
-       "            (mlp): Mlp(\n",
-       "              (fc1): Linear(in_features=768, out_features=3072, bias=True)\n",
-       "              (act): GELUTanh()\n",
-       "              (drop1): Dropout(p=0.0, inplace=False)\n",
-       "              (fc2): Linear(in_features=3072, out_features=768, bias=True)\n",
-       "              (drop2): Dropout(p=0.0, inplace=False)\n",
-       "            )\n",
-       "            (ls2): Identity()\n",
-       "            (drop_path2): Identity()\n",
-       "          )\n",
-       "          (attn_grid): PartitionAttentionCl(\n",
-       "            (norm1): LayerNorm((768,), eps=1e-05, elementwise_affine=True)\n",
-       "            (attn): AttentionCl(\n",
-       "              (qkv): Linear(in_features=768, out_features=2304, bias=True)\n",
-       "              (rel_pos): RelPosBiasTf()\n",
-       "              (attn_drop): Dropout(p=0.0, inplace=False)\n",
-       "              (proj): Linear(in_features=768, out_features=768, bias=True)\n",
-       "              (proj_drop): Dropout(p=0.0, inplace=False)\n",
-       "            )\n",
-       "            (ls1): Identity()\n",
-       "            (drop_path1): Identity()\n",
-       "            (norm2): LayerNorm((768,), eps=1e-05, elementwise_affine=True)\n",
-       "            (mlp): Mlp(\n",
-       "              (fc1): Linear(in_features=768, out_features=3072, bias=True)\n",
-       "              (act): GELUTanh()\n",
-       "              (drop1): Dropout(p=0.0, inplace=False)\n",
-       "              (fc2): Linear(in_features=3072, out_features=768, bias=True)\n",
-       "              (drop2): Dropout(p=0.0, inplace=False)\n",
-       "            )\n",
-       "            (ls2): Identity()\n",
-       "            (drop_path2): Identity()\n",
-       "          )\n",
-       "        )\n",
-       "        (10): MaxxVitBlock(\n",
-       "          (conv): MbConvBlock(\n",
-       "            (shortcut): Identity()\n",
-       "            (pre_norm): BatchNormAct2d(\n",
-       "              768, eps=0.001, momentum=0.1, affine=True, track_running_stats=True\n",
-       "              (drop): Identity()\n",
-       "              (act): Identity()\n",
-       "            )\n",
-       "            (down): Identity()\n",
-       "            (conv1_1x1): Conv2d(768, 3072, kernel_size=(1, 1), stride=(1, 1), bias=False)\n",
-       "            (norm1): BatchNormAct2d(\n",
-       "              3072, eps=0.001, momentum=0.1, affine=True, track_running_stats=True\n",
-       "              (drop): Identity()\n",
-       "              (act): GELUTanh()\n",
-       "            )\n",
-       "            (conv2_kxk): Conv2d(3072, 3072, kernel_size=(3, 3), stride=(1, 1), padding=(1, 1), groups=3072, bias=False)\n",
-       "            (norm2): BatchNormAct2d(\n",
-       "              3072, eps=0.001, momentum=0.1, affine=True, track_running_stats=True\n",
-       "              (drop): Identity()\n",
-       "              (act): GELUTanh()\n",
-       "            )\n",
-       "            (se): SEModule(\n",
-       "              (fc1): Conv2d(3072, 192, kernel_size=(1, 1), stride=(1, 1))\n",
-       "              (bn): Identity()\n",
-       "              (act): SiLU(inplace=True)\n",
-       "              (fc2): Conv2d(192, 3072, kernel_size=(1, 1), stride=(1, 1))\n",
-       "              (gate): Sigmoid()\n",
-       "            )\n",
-       "            (conv3_1x1): Conv2d(3072, 768, kernel_size=(1, 1), stride=(1, 1))\n",
-       "            (drop_path): Identity()\n",
-       "          )\n",
-       "          (attn_block): PartitionAttentionCl(\n",
-       "            (norm1): LayerNorm((768,), eps=1e-05, elementwise_affine=True)\n",
-       "            (attn): AttentionCl(\n",
-       "              (qkv): Linear(in_features=768, out_features=2304, bias=True)\n",
-       "              (rel_pos): RelPosBiasTf()\n",
-       "              (attn_drop): Dropout(p=0.0, inplace=False)\n",
-       "              (proj): Linear(in_features=768, out_features=768, bias=True)\n",
-       "              (proj_drop): Dropout(p=0.0, inplace=False)\n",
-       "            )\n",
-       "            (ls1): Identity()\n",
-       "            (drop_path1): Identity()\n",
-       "            (norm2): LayerNorm((768,), eps=1e-05, elementwise_affine=True)\n",
-       "            (mlp): Mlp(\n",
-       "              (fc1): Linear(in_features=768, out_features=3072, bias=True)\n",
-       "              (act): GELUTanh()\n",
-       "              (drop1): Dropout(p=0.0, inplace=False)\n",
-       "              (fc2): Linear(in_features=3072, out_features=768, bias=True)\n",
-       "              (drop2): Dropout(p=0.0, inplace=False)\n",
-       "            )\n",
-       "            (ls2): Identity()\n",
-       "            (drop_path2): Identity()\n",
-       "          )\n",
-       "          (attn_grid): PartitionAttentionCl(\n",
-       "            (norm1): LayerNorm((768,), eps=1e-05, elementwise_affine=True)\n",
-       "            (attn): AttentionCl(\n",
-       "              (qkv): Linear(in_features=768, out_features=2304, bias=True)\n",
-       "              (rel_pos): RelPosBiasTf()\n",
-       "              (attn_drop): Dropout(p=0.0, inplace=False)\n",
-       "              (proj): Linear(in_features=768, out_features=768, bias=True)\n",
-       "              (proj_drop): Dropout(p=0.0, inplace=False)\n",
-       "            )\n",
-       "            (ls1): Identity()\n",
-       "            (drop_path1): Identity()\n",
-       "            (norm2): LayerNorm((768,), eps=1e-05, elementwise_affine=True)\n",
-       "            (mlp): Mlp(\n",
-       "              (fc1): Linear(in_features=768, out_features=3072, bias=True)\n",
-       "              (act): GELUTanh()\n",
-       "              (drop1): Dropout(p=0.0, inplace=False)\n",
-       "              (fc2): Linear(in_features=3072, out_features=768, bias=True)\n",
-       "              (drop2): Dropout(p=0.0, inplace=False)\n",
-       "            )\n",
-       "            (ls2): Identity()\n",
-       "            (drop_path2): Identity()\n",
-       "          )\n",
-       "        )\n",
-       "        (11): MaxxVitBlock(\n",
-       "          (conv): MbConvBlock(\n",
-       "            (shortcut): Identity()\n",
-       "            (pre_norm): BatchNormAct2d(\n",
-       "              768, eps=0.001, momentum=0.1, affine=True, track_running_stats=True\n",
-       "              (drop): Identity()\n",
-       "              (act): Identity()\n",
-       "            )\n",
-       "            (down): Identity()\n",
-       "            (conv1_1x1): Conv2d(768, 3072, kernel_size=(1, 1), stride=(1, 1), bias=False)\n",
-       "            (norm1): BatchNormAct2d(\n",
-       "              3072, eps=0.001, momentum=0.1, affine=True, track_running_stats=True\n",
-       "              (drop): Identity()\n",
-       "              (act): GELUTanh()\n",
-       "            )\n",
-       "            (conv2_kxk): Conv2d(3072, 3072, kernel_size=(3, 3), stride=(1, 1), padding=(1, 1), groups=3072, bias=False)\n",
-       "            (norm2): BatchNormAct2d(\n",
-       "              3072, eps=0.001, momentum=0.1, affine=True, track_running_stats=True\n",
-       "              (drop): Identity()\n",
-       "              (act): GELUTanh()\n",
-       "            )\n",
-       "            (se): SEModule(\n",
-       "              (fc1): Conv2d(3072, 192, kernel_size=(1, 1), stride=(1, 1))\n",
-       "              (bn): Identity()\n",
-       "              (act): SiLU(inplace=True)\n",
-       "              (fc2): Conv2d(192, 3072, kernel_size=(1, 1), stride=(1, 1))\n",
-       "              (gate): Sigmoid()\n",
-       "            )\n",
-       "            (conv3_1x1): Conv2d(3072, 768, kernel_size=(1, 1), stride=(1, 1))\n",
-       "            (drop_path): Identity()\n",
-       "          )\n",
-       "          (attn_block): PartitionAttentionCl(\n",
-       "            (norm1): LayerNorm((768,), eps=1e-05, elementwise_affine=True)\n",
-       "            (attn): AttentionCl(\n",
-       "              (qkv): Linear(in_features=768, out_features=2304, bias=True)\n",
-       "              (rel_pos): RelPosBiasTf()\n",
-       "              (attn_drop): Dropout(p=0.0, inplace=False)\n",
-       "              (proj): Linear(in_features=768, out_features=768, bias=True)\n",
-       "              (proj_drop): Dropout(p=0.0, inplace=False)\n",
-       "            )\n",
-       "            (ls1): Identity()\n",
-       "            (drop_path1): Identity()\n",
-       "            (norm2): LayerNorm((768,), eps=1e-05, elementwise_affine=True)\n",
-       "            (mlp): Mlp(\n",
-       "              (fc1): Linear(in_features=768, out_features=3072, bias=True)\n",
-       "              (act): GELUTanh()\n",
-       "              (drop1): Dropout(p=0.0, inplace=False)\n",
-       "              (fc2): Linear(in_features=3072, out_features=768, bias=True)\n",
-       "              (drop2): Dropout(p=0.0, inplace=False)\n",
-       "            )\n",
-       "            (ls2): Identity()\n",
-       "            (drop_path2): Identity()\n",
-       "          )\n",
-       "          (attn_grid): PartitionAttentionCl(\n",
-       "            (norm1): LayerNorm((768,), eps=1e-05, elementwise_affine=True)\n",
-       "            (attn): AttentionCl(\n",
-       "              (qkv): Linear(in_features=768, out_features=2304, bias=True)\n",
-       "              (rel_pos): RelPosBiasTf()\n",
-       "              (attn_drop): Dropout(p=0.0, inplace=False)\n",
-       "              (proj): Linear(in_features=768, out_features=768, bias=True)\n",
-       "              (proj_drop): Dropout(p=0.0, inplace=False)\n",
-       "            )\n",
-       "            (ls1): Identity()\n",
-       "            (drop_path1): Identity()\n",
-       "            (norm2): LayerNorm((768,), eps=1e-05, elementwise_affine=True)\n",
-       "            (mlp): Mlp(\n",
-       "              (fc1): Linear(in_features=768, out_features=3072, bias=True)\n",
-       "              (act): GELUTanh()\n",
-       "              (drop1): Dropout(p=0.0, inplace=False)\n",
-       "              (fc2): Linear(in_features=3072, out_features=768, bias=True)\n",
-       "              (drop2): Dropout(p=0.0, inplace=False)\n",
-       "            )\n",
-       "            (ls2): Identity()\n",
-       "            (drop_path2): Identity()\n",
-       "          )\n",
-       "        )\n",
-       "        (12): MaxxVitBlock(\n",
-       "          (conv): MbConvBlock(\n",
-       "            (shortcut): Identity()\n",
-       "            (pre_norm): BatchNormAct2d(\n",
-       "              768, eps=0.001, momentum=0.1, affine=True, track_running_stats=True\n",
-       "              (drop): Identity()\n",
-       "              (act): Identity()\n",
-       "            )\n",
-       "            (down): Identity()\n",
-       "            (conv1_1x1): Conv2d(768, 3072, kernel_size=(1, 1), stride=(1, 1), bias=False)\n",
-       "            (norm1): BatchNormAct2d(\n",
-       "              3072, eps=0.001, momentum=0.1, affine=True, track_running_stats=True\n",
-       "              (drop): Identity()\n",
-       "              (act): GELUTanh()\n",
-       "            )\n",
-       "            (conv2_kxk): Conv2d(3072, 3072, kernel_size=(3, 3), stride=(1, 1), padding=(1, 1), groups=3072, bias=False)\n",
-       "            (norm2): BatchNormAct2d(\n",
-       "              3072, eps=0.001, momentum=0.1, affine=True, track_running_stats=True\n",
-       "              (drop): Identity()\n",
-       "              (act): GELUTanh()\n",
-       "            )\n",
-       "            (se): SEModule(\n",
-       "              (fc1): Conv2d(3072, 192, kernel_size=(1, 1), stride=(1, 1))\n",
-       "              (bn): Identity()\n",
-       "              (act): SiLU(inplace=True)\n",
-       "              (fc2): Conv2d(192, 3072, kernel_size=(1, 1), stride=(1, 1))\n",
-       "              (gate): Sigmoid()\n",
-       "            )\n",
-       "            (conv3_1x1): Conv2d(3072, 768, kernel_size=(1, 1), stride=(1, 1))\n",
-       "            (drop_path): Identity()\n",
-       "          )\n",
-       "          (attn_block): PartitionAttentionCl(\n",
-       "            (norm1): LayerNorm((768,), eps=1e-05, elementwise_affine=True)\n",
-       "            (attn): AttentionCl(\n",
-       "              (qkv): Linear(in_features=768, out_features=2304, bias=True)\n",
-       "              (rel_pos): RelPosBiasTf()\n",
-       "              (attn_drop): Dropout(p=0.0, inplace=False)\n",
-       "              (proj): Linear(in_features=768, out_features=768, bias=True)\n",
-       "              (proj_drop): Dropout(p=0.0, inplace=False)\n",
-       "            )\n",
-       "            (ls1): Identity()\n",
-       "            (drop_path1): Identity()\n",
-       "            (norm2): LayerNorm((768,), eps=1e-05, elementwise_affine=True)\n",
-       "            (mlp): Mlp(\n",
-       "              (fc1): Linear(in_features=768, out_features=3072, bias=True)\n",
-       "              (act): GELUTanh()\n",
-       "              (drop1): Dropout(p=0.0, inplace=False)\n",
-       "              (fc2): Linear(in_features=3072, out_features=768, bias=True)\n",
-       "              (drop2): Dropout(p=0.0, inplace=False)\n",
-       "            )\n",
-       "            (ls2): Identity()\n",
-       "            (drop_path2): Identity()\n",
-       "          )\n",
-       "          (attn_grid): PartitionAttentionCl(\n",
-       "            (norm1): LayerNorm((768,), eps=1e-05, elementwise_affine=True)\n",
-       "            (attn): AttentionCl(\n",
-       "              (qkv): Linear(in_features=768, out_features=2304, bias=True)\n",
-       "              (rel_pos): RelPosBiasTf()\n",
-       "              (attn_drop): Dropout(p=0.0, inplace=False)\n",
-       "              (proj): Linear(in_features=768, out_features=768, bias=True)\n",
-       "              (proj_drop): Dropout(p=0.0, inplace=False)\n",
-       "            )\n",
-       "            (ls1): Identity()\n",
-       "            (drop_path1): Identity()\n",
-       "            (norm2): LayerNorm((768,), eps=1e-05, elementwise_affine=True)\n",
-       "            (mlp): Mlp(\n",
-       "              (fc1): Linear(in_features=768, out_features=3072, bias=True)\n",
-       "              (act): GELUTanh()\n",
-       "              (drop1): Dropout(p=0.0, inplace=False)\n",
-       "              (fc2): Linear(in_features=3072, out_features=768, bias=True)\n",
-       "              (drop2): Dropout(p=0.0, inplace=False)\n",
-       "            )\n",
-       "            (ls2): Identity()\n",
-       "            (drop_path2): Identity()\n",
-       "          )\n",
-       "        )\n",
-       "        (13): MaxxVitBlock(\n",
-       "          (conv): MbConvBlock(\n",
-       "            (shortcut): Identity()\n",
-       "            (pre_norm): BatchNormAct2d(\n",
-       "              768, eps=0.001, momentum=0.1, affine=True, track_running_stats=True\n",
-       "              (drop): Identity()\n",
-       "              (act): Identity()\n",
-       "            )\n",
-       "            (down): Identity()\n",
-       "            (conv1_1x1): Conv2d(768, 3072, kernel_size=(1, 1), stride=(1, 1), bias=False)\n",
-       "            (norm1): BatchNormAct2d(\n",
-       "              3072, eps=0.001, momentum=0.1, affine=True, track_running_stats=True\n",
-       "              (drop): Identity()\n",
-       "              (act): GELUTanh()\n",
-       "            )\n",
-       "            (conv2_kxk): Conv2d(3072, 3072, kernel_size=(3, 3), stride=(1, 1), padding=(1, 1), groups=3072, bias=False)\n",
-       "            (norm2): BatchNormAct2d(\n",
-       "              3072, eps=0.001, momentum=0.1, affine=True, track_running_stats=True\n",
-       "              (drop): Identity()\n",
-       "              (act): GELUTanh()\n",
-       "            )\n",
-       "            (se): SEModule(\n",
-       "              (fc1): Conv2d(3072, 192, kernel_size=(1, 1), stride=(1, 1))\n",
-       "              (bn): Identity()\n",
-       "              (act): SiLU(inplace=True)\n",
-       "              (fc2): Conv2d(192, 3072, kernel_size=(1, 1), stride=(1, 1))\n",
-       "              (gate): Sigmoid()\n",
-       "            )\n",
-       "            (conv3_1x1): Conv2d(3072, 768, kernel_size=(1, 1), stride=(1, 1))\n",
-       "            (drop_path): Identity()\n",
-       "          )\n",
-       "          (attn_block): PartitionAttentionCl(\n",
-       "            (norm1): LayerNorm((768,), eps=1e-05, elementwise_affine=True)\n",
-       "            (attn): AttentionCl(\n",
-       "              (qkv): Linear(in_features=768, out_features=2304, bias=True)\n",
-       "              (rel_pos): RelPosBiasTf()\n",
-       "              (attn_drop): Dropout(p=0.0, inplace=False)\n",
-       "              (proj): Linear(in_features=768, out_features=768, bias=True)\n",
-       "              (proj_drop): Dropout(p=0.0, inplace=False)\n",
-       "            )\n",
-       "            (ls1): Identity()\n",
-       "            (drop_path1): Identity()\n",
-       "            (norm2): LayerNorm((768,), eps=1e-05, elementwise_affine=True)\n",
-       "            (mlp): Mlp(\n",
-       "              (fc1): Linear(in_features=768, out_features=3072, bias=True)\n",
-       "              (act): GELUTanh()\n",
-       "              (drop1): Dropout(p=0.0, inplace=False)\n",
-       "              (fc2): Linear(in_features=3072, out_features=768, bias=True)\n",
-       "              (drop2): Dropout(p=0.0, inplace=False)\n",
-       "            )\n",
-       "            (ls2): Identity()\n",
-       "            (drop_path2): Identity()\n",
-       "          )\n",
-       "          (attn_grid): PartitionAttentionCl(\n",
-       "            (norm1): LayerNorm((768,), eps=1e-05, elementwise_affine=True)\n",
-       "            (attn): AttentionCl(\n",
-       "              (qkv): Linear(in_features=768, out_features=2304, bias=True)\n",
-       "              (rel_pos): RelPosBiasTf()\n",
-       "              (attn_drop): Dropout(p=0.0, inplace=False)\n",
-       "              (proj): Linear(in_features=768, out_features=768, bias=True)\n",
-       "              (proj_drop): Dropout(p=0.0, inplace=False)\n",
-       "            )\n",
-       "            (ls1): Identity()\n",
-       "            (drop_path1): Identity()\n",
-       "            (norm2): LayerNorm((768,), eps=1e-05, elementwise_affine=True)\n",
-       "            (mlp): Mlp(\n",
-       "              (fc1): Linear(in_features=768, out_features=3072, bias=True)\n",
-       "              (act): GELUTanh()\n",
-       "              (drop1): Dropout(p=0.0, inplace=False)\n",
-       "              (fc2): Linear(in_features=3072, out_features=768, bias=True)\n",
-       "              (drop2): Dropout(p=0.0, inplace=False)\n",
-       "            )\n",
-       "            (ls2): Identity()\n",
-       "            (drop_path2): Identity()\n",
-       "          )\n",
-       "        )\n",
-       "      )\n",
-       "    )\n",
-       "    (3): MaxxVitStage(\n",
-       "      (blocks): Sequential(\n",
-       "        (0): MaxxVitBlock(\n",
-       "          (conv): MbConvBlock(\n",
-       "            (shortcut): Downsample2d(\n",
-       "              (pool): AvgPool2dSame(kernel_size=(2, 2), stride=(2, 2), padding=(0, 0))\n",
-       "              (expand): Conv2d(768, 1536, kernel_size=(1, 1), stride=(1, 1))\n",
-       "            )\n",
-       "            (pre_norm): BatchNormAct2d(\n",
-       "              768, eps=0.001, momentum=0.1, affine=True, track_running_stats=True\n",
-       "              (drop): Identity()\n",
-       "              (act): Identity()\n",
-       "            )\n",
-       "            (down): Identity()\n",
-       "            (conv1_1x1): Conv2d(768, 6144, kernel_size=(1, 1), stride=(1, 1), bias=False)\n",
-       "            (norm1): BatchNormAct2d(\n",
-       "              6144, eps=0.001, momentum=0.1, affine=True, track_running_stats=True\n",
-       "              (drop): Identity()\n",
-       "              (act): GELUTanh()\n",
-       "            )\n",
-       "            (conv2_kxk): Conv2dSame(6144, 6144, kernel_size=(3, 3), stride=(2, 2), groups=6144, bias=False)\n",
-       "            (norm2): BatchNormAct2d(\n",
-       "              6144, eps=0.001, momentum=0.1, affine=True, track_running_stats=True\n",
-       "              (drop): Identity()\n",
-       "              (act): GELUTanh()\n",
-       "            )\n",
-       "            (se): SEModule(\n",
-       "              (fc1): Conv2d(6144, 384, kernel_size=(1, 1), stride=(1, 1))\n",
-       "              (bn): Identity()\n",
-       "              (act): SiLU(inplace=True)\n",
-       "              (fc2): Conv2d(384, 6144, kernel_size=(1, 1), stride=(1, 1))\n",
-       "              (gate): Sigmoid()\n",
-       "            )\n",
-       "            (conv3_1x1): Conv2d(6144, 1536, kernel_size=(1, 1), stride=(1, 1))\n",
-       "            (drop_path): Identity()\n",
-       "          )\n",
-       "          (attn_block): PartitionAttentionCl(\n",
-       "            (norm1): LayerNorm((1536,), eps=1e-05, elementwise_affine=True)\n",
-       "            (attn): AttentionCl(\n",
-       "              (qkv): Linear(in_features=1536, out_features=4608, bias=True)\n",
-       "              (rel_pos): RelPosBiasTf()\n",
-       "              (attn_drop): Dropout(p=0.0, inplace=False)\n",
-       "              (proj): Linear(in_features=1536, out_features=1536, bias=True)\n",
-       "              (proj_drop): Dropout(p=0.0, inplace=False)\n",
-       "            )\n",
-       "            (ls1): Identity()\n",
-       "            (drop_path1): Identity()\n",
-       "            (norm2): LayerNorm((1536,), eps=1e-05, elementwise_affine=True)\n",
-       "            (mlp): Mlp(\n",
-       "              (fc1): Linear(in_features=1536, out_features=6144, bias=True)\n",
-       "              (act): GELUTanh()\n",
-       "              (drop1): Dropout(p=0.0, inplace=False)\n",
-       "              (fc2): Linear(in_features=6144, out_features=1536, bias=True)\n",
-       "              (drop2): Dropout(p=0.0, inplace=False)\n",
-       "            )\n",
-       "            (ls2): Identity()\n",
-       "            (drop_path2): Identity()\n",
-       "          )\n",
-       "          (attn_grid): PartitionAttentionCl(\n",
-       "            (norm1): LayerNorm((1536,), eps=1e-05, elementwise_affine=True)\n",
-       "            (attn): AttentionCl(\n",
-       "              (qkv): Linear(in_features=1536, out_features=4608, bias=True)\n",
-       "              (rel_pos): RelPosBiasTf()\n",
-       "              (attn_drop): Dropout(p=0.0, inplace=False)\n",
-       "              (proj): Linear(in_features=1536, out_features=1536, bias=True)\n",
-       "              (proj_drop): Dropout(p=0.0, inplace=False)\n",
-       "            )\n",
-       "            (ls1): Identity()\n",
-       "            (drop_path1): Identity()\n",
-       "            (norm2): LayerNorm((1536,), eps=1e-05, elementwise_affine=True)\n",
-       "            (mlp): Mlp(\n",
-       "              (fc1): Linear(in_features=1536, out_features=6144, bias=True)\n",
-       "              (act): GELUTanh()\n",
-       "              (drop1): Dropout(p=0.0, inplace=False)\n",
-       "              (fc2): Linear(in_features=6144, out_features=1536, bias=True)\n",
-       "              (drop2): Dropout(p=0.0, inplace=False)\n",
-       "            )\n",
-       "            (ls2): Identity()\n",
-       "            (drop_path2): Identity()\n",
-       "          )\n",
-       "        )\n",
-       "        (1): MaxxVitBlock(\n",
-       "          (conv): MbConvBlock(\n",
-       "            (shortcut): Identity()\n",
-       "            (pre_norm): BatchNormAct2d(\n",
-       "              1536, eps=0.001, momentum=0.1, affine=True, track_running_stats=True\n",
-       "              (drop): Identity()\n",
-       "              (act): Identity()\n",
-       "            )\n",
-       "            (down): Identity()\n",
-       "            (conv1_1x1): Conv2d(1536, 6144, kernel_size=(1, 1), stride=(1, 1), bias=False)\n",
-       "            (norm1): BatchNormAct2d(\n",
-       "              6144, eps=0.001, momentum=0.1, affine=True, track_running_stats=True\n",
-       "              (drop): Identity()\n",
-       "              (act): GELUTanh()\n",
-       "            )\n",
-       "            (conv2_kxk): Conv2d(6144, 6144, kernel_size=(3, 3), stride=(1, 1), padding=(1, 1), groups=6144, bias=False)\n",
-       "            (norm2): BatchNormAct2d(\n",
-       "              6144, eps=0.001, momentum=0.1, affine=True, track_running_stats=True\n",
-       "              (drop): Identity()\n",
-       "              (act): GELUTanh()\n",
-       "            )\n",
-       "            (se): SEModule(\n",
-       "              (fc1): Conv2d(6144, 384, kernel_size=(1, 1), stride=(1, 1))\n",
-       "              (bn): Identity()\n",
-       "              (act): SiLU(inplace=True)\n",
-       "              (fc2): Conv2d(384, 6144, kernel_size=(1, 1), stride=(1, 1))\n",
-       "              (gate): Sigmoid()\n",
-       "            )\n",
-       "            (conv3_1x1): Conv2d(6144, 1536, kernel_size=(1, 1), stride=(1, 1))\n",
-       "            (drop_path): Identity()\n",
-       "          )\n",
-       "          (attn_block): PartitionAttentionCl(\n",
-       "            (norm1): LayerNorm((1536,), eps=1e-05, elementwise_affine=True)\n",
-       "            (attn): AttentionCl(\n",
-       "              (qkv): Linear(in_features=1536, out_features=4608, bias=True)\n",
-       "              (rel_pos): RelPosBiasTf()\n",
-       "              (attn_drop): Dropout(p=0.0, inplace=False)\n",
-       "              (proj): Linear(in_features=1536, out_features=1536, bias=True)\n",
-       "              (proj_drop): Dropout(p=0.0, inplace=False)\n",
-       "            )\n",
-       "            (ls1): Identity()\n",
-       "            (drop_path1): Identity()\n",
-       "            (norm2): LayerNorm((1536,), eps=1e-05, elementwise_affine=True)\n",
-       "            (mlp): Mlp(\n",
-       "              (fc1): Linear(in_features=1536, out_features=6144, bias=True)\n",
-       "              (act): GELUTanh()\n",
-       "              (drop1): Dropout(p=0.0, inplace=False)\n",
-       "              (fc2): Linear(in_features=6144, out_features=1536, bias=True)\n",
-       "              (drop2): Dropout(p=0.0, inplace=False)\n",
-       "            )\n",
-       "            (ls2): Identity()\n",
-       "            (drop_path2): Identity()\n",
-       "          )\n",
-       "          (attn_grid): PartitionAttentionCl(\n",
-       "            (norm1): LayerNorm((1536,), eps=1e-05, elementwise_affine=True)\n",
-       "            (attn): AttentionCl(\n",
-       "              (qkv): Linear(in_features=1536, out_features=4608, bias=True)\n",
-       "              (rel_pos): RelPosBiasTf()\n",
-       "              (attn_drop): Dropout(p=0.0, inplace=False)\n",
-       "              (proj): Linear(in_features=1536, out_features=1536, bias=True)\n",
-       "              (proj_drop): Dropout(p=0.0, inplace=False)\n",
-       "            )\n",
-       "            (ls1): Identity()\n",
-       "            (drop_path1): Identity()\n",
-       "            (norm2): LayerNorm((1536,), eps=1e-05, elementwise_affine=True)\n",
-       "            (mlp): Mlp(\n",
-       "              (fc1): Linear(in_features=1536, out_features=6144, bias=True)\n",
-       "              (act): GELUTanh()\n",
-       "              (drop1): Dropout(p=0.0, inplace=False)\n",
-       "              (fc2): Linear(in_features=6144, out_features=1536, bias=True)\n",
-       "              (drop2): Dropout(p=0.0, inplace=False)\n",
-       "            )\n",
-       "            (ls2): Identity()\n",
-       "            (drop_path2): Identity()\n",
-       "          )\n",
-       "        )\n",
-       "      )\n",
-       "    )\n",
-       "  )\n",
-       "  (norm): Identity()\n",
-       "  (head): NormMlpClassifierHead(\n",
-       "    (global_pool): SelectAdaptivePool2d (pool_type=avg, flatten=Identity())\n",
-       "    (norm): LayerNorm2d((1536,), eps=1e-05, elementwise_affine=True)\n",
-       "    (flatten): Flatten(start_dim=1, end_dim=-1)\n",
-       "    (pre_logits): Sequential(\n",
-       "      (fc): Linear(in_features=1536, out_features=1536, bias=True)\n",
-       "      (act): Tanh()\n",
-       "    )\n",
-       "    (drop): Dropout(p=0.0, inplace=False)\n",
-       "    (fc): Linear(in_features=1536, out_features=1000, bias=True)\n",
-       "  )\n",
-       ")"
-      ]
-     },
-     "execution_count": 4,
-     "metadata": {},
-     "output_type": "execute_result"
-    }
-   ],
-   "source": [
-    "timm.create_model(\"maxvit_xlarge_tf_512.in21k_ft_in1k\", pretrained=True)"
-   ]
-  },
-  {
-   "cell_type": "code",
-   "execution_count": null,
+   "execution_count": 3,
    "id": "af673a5e-c94b-4ff2-ad5a-af508a10ca18",
…
